{"format": "graph-model", "generatedBy": "2.13.0", "convertedBy": "TensorFlow.js Converter v4.10.0", "signature": {"inputs": {"input_bytes": {"name": "input_bytes:0", "dtype": "DT_UINT8", "tensorShape": {"dim": [{"size": "-1"}, {"size": "-1"}, {"size": "-1"}, {"size": "3"}]}}}, "outputs": {"output_0": {"name": "Identity:0", "dtype": "DT_UINT8", "tensorShape": {"dim": [{"size": "-1"}, {"size": "-1"}, {"size": "-1"}, {"size": "3"}]}}}}, "modelTopology": {"node": [{"name": "StatefulPartitionedCall/model_2/UpCunet2x/UpCunet2x.unet2/strided_slice/stack", "op": "Const", "attr": {"value": {"tensor": {"dtype": "DT_INT32", "tensorShape": {"dim": [{"size": "4"}]}}}, "dtype": {"type": "DT_INT32"}}}, {"name": "StatefulPartitionedCall/model_2/UpCunet2x/UpCunet2x.unet2/strided_slice/stack_1", "op": "Const", "attr": {"value": {"tensor": {"dtype": "DT_INT32", "tensorShape": {"dim": [{"size": "4"}]}}}, "dtype": {"type": "DT_INT32"}}}, {"name": "StatefulPartitionedCall/model_2/UpCunet2x/UpCunet2x.unet2/strided_slice/stack_2", "op": "Const", "attr": {"value": {"tensor": {"dtype": "DT_INT32", "tensorShape": {"dim": [{"size": "4"}]}}}, "dtype": {"type": "DT_INT32"}}}, {"name": "StatefulPartitionedCall/model_2/UpCunet2x/UpCunet2x.unet2/UpCunet2x.unet2.conv4_up/strided_slice/stack", "op": "Const", "attr": {"value": {"tensor": {"dtype": "DT_INT32", "tensorShape": {"dim": [{"size": "1"}]}}}, "dtype": {"type": "DT_INT32"}}}, {"name": "StatefulPartitionedCall/model_2/UpCunet2x/UpCunet2x.unet2/UpCunet2x.unet2.conv4_up/strided_slice/stack_1", "op": "Const", "attr": {"value": {"tensor": {"dtype": "DT_INT32", "tensorShape": {"dim": [{"size": "1"}]}}}, "dtype": {"type": "DT_INT32"}}}, {"name": "StatefulPartitionedCall/model_2/UpCunet2x/UpCunet2x.unet2/UpCunet2x.unet2.conv4_up/strided_slice/stack_2", "op": "Const", "attr": {"value": {"tensor": {"dtype": "DT_INT32", "tensorShape": {"dim": [{"size": "1"}]}}}, "dtype": {"type": "DT_INT32"}}}, {"name": "StatefulPartitionedCall/model_2/UpCunet2x/UpCunet2x.unet2/UpCunet2x.unet2.conv4_up/strided_slice_1/stack", "op": "Const", "attr": {"value": {"tensor": {"dtype": "DT_INT32", "tensorShape": {"dim": [{"size": "1"}]}}}, "dtype": {"type": "DT_INT32"}}}, {"name": "StatefulPartitionedCall/model_2/UpCunet2x/UpCunet2x.unet2/UpCunet2x.unet2.conv4_up/strided_slice_1/stack_1", "op": "Const", "attr": {"value": {"tensor": {"dtype": "DT_INT32", "tensorShape": {"dim": [{"size": "1"}]}}}, "dtype": {"type": "DT_INT32"}}}, {"name": "StatefulPartitionedCall/model_2/UpCunet2x/UpCunet2x.unet2/UpCunet2x.unet2.conv4_up/strided_slice_1/stack_2", "op": "Const", "attr": {"value": {"tensor": {"dtype": "DT_INT32", "tensorShape": {"dim": [{"size": "1"}]}}}, "dtype": {"type": "DT_INT32"}}}, {"name": "StatefulPartitionedCall/model_2/UpCunet2x/UpCunet2x.unet2/UpCunet2x.unet2.conv4_up/mul/y", "op": "Const", "attr": {"value": {"tensor": {"dtype": "DT_INT32", "tensorShape": {}}}, "dtype": {"type": "DT_INT32"}}}, {"name": "StatefulPartitionedCall/model_2/UpCunet2x/UpCunet2x.unet2/UpCunet2x.unet2.conv4_up/strided_slice_2/stack", "op": "Const", "attr": {"value": {"tensor": {"dtype": "DT_INT32", "tensorShape": {"dim": [{"size": "1"}]}}}, "dtype": {"type": "DT_INT32"}}}, {"name": "StatefulPartitionedCall/model_2/UpCunet2x/UpCunet2x.unet2/UpCunet2x.unet2.conv4_up/strided_slice_2/stack_1", "op": "Const", "attr": {"value": {"tensor": {"dtype": "DT_INT32", "tensorShape": {"dim": [{"size": "1"}]}}}, "dtype": {"type": "DT_INT32"}}}, {"name": "StatefulPartitionedCall/model_2/UpCunet2x/UpCunet2x.unet2/UpCunet2x.unet2.conv4_up/strided_slice_2/stack_2", "op": "Const", "attr": {"value": {"tensor": {"dtype": "DT_INT32", "tensorShape": {"dim": [{"size": "1"}]}}}, "dtype": {"type": "DT_INT32"}}}, {"name": "StatefulPartitionedCall/model_2/UpCunet2x/UpCunet2x.unet2/UpCunet2x.unet2.conv4_up/mul_1/y", "op": "Const", "attr": {"value": {"tensor": {"dtype": "DT_INT32", "tensorShape": {}}}, "dtype": {"type": "DT_INT32"}}}, {"name": "StatefulPartitionedCall/model_2/UpCunet2x/UpCunet2x.unet2/UpCunet2x.unet2.conv4_up/stack/3", "op": "Const", "attr": {"value": {"tensor": {"dtype": "DT_INT32", "tensorShape": {}}}, "dtype": {"type": "DT_INT32"}}}, {"name": "StatefulPartitionedCall/model_2/UpCunet2x/UpCunet2x.unet2/UpCunet2x.unet2.conv4_up/conv2d_transpose/ReadVariableOp", "op": "Const", "attr": {"value": {"tensor": {"dtype": "DT_FLOAT", "tensorShape": {"dim": [{"size": "2"}, {"size": "2"}, {"size": "64"}, {"size": "64"}]}}}, "dtype": {"type": "DT_FLOAT"}}}, {"name": "StatefulPartitionedCall/model_2/UpCunet2x/UpCunet2x.unet2/strided_slice_1/stack", "op": "Const", "attr": {"value": {"tensor": {"dtype": "DT_INT32", "tensorShape": {"dim": [{"size": "4"}]}}}, "dtype": {"type": "DT_INT32"}}}, {"name": "StatefulPartitionedCall/model_2/UpCunet2x/UpCunet2x.unet2/strided_slice_1/stack_1", "op": "Const", "attr": {"value": {"tensor": {"dtype": "DT_INT32", "tensorShape": {"dim": [{"size": "4"}]}}}, "dtype": {"type": "DT_INT32"}}}, {"name": "StatefulPartitionedCall/model_2/UpCunet2x/UpCunet2x.unet2/strided_slice_1/stack_2", "op": "Const", "attr": {"value": {"tensor": {"dtype": "DT_INT32", "tensorShape": {"dim": [{"size": "4"}]}}}, "dtype": {"type": "DT_INT32"}}}, {"name": "StatefulPartitionedCall/model_2/UpCunet2x/UpCunet2x.unet2/UpCunet2x.unet2.conv3_up/strided_slice/stack", "op": "Const", "attr": {"value": {"tensor": {"dtype": "DT_INT32", "tensorShape": {"dim": [{"size": "1"}]}}}, "dtype": {"type": "DT_INT32"}}}, {"name": "StatefulPartitionedCall/model_2/UpCunet2x/UpCunet2x.unet2/UpCunet2x.unet2.conv3_up/strided_slice/stack_1", "op": "Const", "attr": {"value": {"tensor": {"dtype": "DT_INT32", "tensorShape": {"dim": [{"size": "1"}]}}}, "dtype": {"type": "DT_INT32"}}}, {"name": "StatefulPartitionedCall/model_2/UpCunet2x/UpCunet2x.unet2/UpCunet2x.unet2.conv3_up/strided_slice/stack_2", "op": "Const", "attr": {"value": {"tensor": {"dtype": "DT_INT32", "tensorShape": {"dim": [{"size": "1"}]}}}, "dtype": {"type": "DT_INT32"}}}, {"name": "StatefulPartitionedCall/model_2/UpCunet2x/UpCunet2x.unet2/UpCunet2x.unet2.conv3_up/strided_slice_1/stack", "op": "Const", "attr": {"value": {"tensor": {"dtype": "DT_INT32", "tensorShape": {"dim": [{"size": "1"}]}}}, "dtype": {"type": "DT_INT32"}}}, {"name": "StatefulPartitionedCall/model_2/UpCunet2x/UpCunet2x.unet2/UpCunet2x.unet2.conv3_up/strided_slice_1/stack_1", "op": "Const", "attr": {"value": {"tensor": {"dtype": "DT_INT32", "tensorShape": {"dim": [{"size": "1"}]}}}, "dtype": {"type": "DT_INT32"}}}, {"name": "StatefulPartitionedCall/model_2/UpCunet2x/UpCunet2x.unet2/UpCunet2x.unet2.conv3_up/strided_slice_1/stack_2", "op": "Const", "attr": {"value": {"tensor": {"dtype": "DT_INT32", "tensorShape": {"dim": [{"size": "1"}]}}}, "dtype": {"type": "DT_INT32"}}}, {"name": "StatefulPartitionedCall/model_2/UpCunet2x/UpCunet2x.unet2/UpCunet2x.unet2.conv3_up/mul/y", "op": "Const", "attr": {"value": {"tensor": {"dtype": "DT_INT32", "tensorShape": {}}}, "dtype": {"type": "DT_INT32"}}}, {"name": "StatefulPartitionedCall/model_2/UpCunet2x/UpCunet2x.unet2/UpCunet2x.unet2.conv3_up/strided_slice_2/stack", "op": "Const", "attr": {"value": {"tensor": {"dtype": "DT_INT32", "tensorShape": {"dim": [{"size": "1"}]}}}, "dtype": {"type": "DT_INT32"}}}, {"name": "StatefulPartitionedCall/model_2/UpCunet2x/UpCunet2x.unet2/UpCunet2x.unet2.conv3_up/strided_slice_2/stack_1", "op": "Const", "attr": {"value": {"tensor": {"dtype": "DT_INT32", "tensorShape": {"dim": [{"size": "1"}]}}}, "dtype": {"type": "DT_INT32"}}}, {"name": "StatefulPartitionedCall/model_2/UpCunet2x/UpCunet2x.unet2/UpCunet2x.unet2.conv3_up/strided_slice_2/stack_2", "op": "Const", "attr": {"value": {"tensor": {"dtype": "DT_INT32", "tensorShape": {"dim": [{"size": "1"}]}}}, "dtype": {"type": "DT_INT32"}}}, {"name": "StatefulPartitionedCall/model_2/UpCunet2x/UpCunet2x.unet2/UpCunet2x.unet2.conv3_up/mul_1/y", "op": "Const", "attr": {"value": {"tensor": {"dtype": "DT_INT32", "tensorShape": {}}}, "dtype": {"type": "DT_INT32"}}}, {"name": "StatefulPartitionedCall/model_2/UpCunet2x/UpCunet2x.unet2/UpCunet2x.unet2.conv3_up/stack/3", "op": "Const", "attr": {"value": {"tensor": {"dtype": "DT_INT32", "tensorShape": {}}}, "dtype": {"type": "DT_INT32"}}}, {"name": "StatefulPartitionedCall/model_2/UpCunet2x/UpCunet2x.unet2/UpCunet2x.unet2.conv3_up/conv2d_transpose/ReadVariableOp", "op": "Const", "attr": {"value": {"tensor": {"dtype": "DT_FLOAT", "tensorShape": {"dim": [{"size": "2"}, {"size": "2"}, {"size": "128"}, {"size": "128"}]}}}, "dtype": {"type": "DT_FLOAT"}}}, {"name": "StatefulPartitionedCall/model_2/UpCunet2x/UpCunet2x.unet2/UpCunet2x.unet2.conv1/sequential_14/UpCunet2x.unet2.conv1.conv.0/Conv2D/ReadVariableOp", "op": "Const", "attr": {"value": {"tensor": {"dtype": "DT_FLOAT", "tensorShape": {"dim": [{"size": "3"}, {"size": "3"}, {"size": "3"}, {"size": "32"}]}}}, "dtype": {"type": "DT_FLOAT"}}}, {"name": "StatefulPartitionedCall/model_2/UpCunet2x/UpCunet2x.unet2/UpCunet2x.unet2.conv1/sequential_14/UpCunet2x.unet2.conv1.conv.0/BiasAdd/ReadVariableOp", "op": "Const", "attr": {"value": {"tensor": {"dtype": "DT_FLOAT", "tensorShape": {"dim": [{"size": "32"}]}}}, "dtype": {"type": "DT_FLOAT"}}}, {"name": "StatefulPartitionedCall/model_2/UpCunet2x/UpCunet2x.unet2/UpCunet2x.unet2.conv1/sequential_14/UpCunet2x.unet2.conv1.conv.2/Conv2D/ReadVariableOp", "op": "Const", "attr": {"value": {"tensor": {"dtype": "DT_FLOAT", "tensorShape": {"dim": [{"size": "3"}, {"size": "3"}, {"size": "32"}, {"size": "64"}]}}}, "dtype": {"type": "DT_FLOAT"}}}, {"name": "StatefulPartitionedCall/model_2/UpCunet2x/UpCunet2x.unet2/UpCunet2x.unet2.conv1/sequential_14/UpCunet2x.unet2.conv1.conv.2/BiasAdd/ReadVariableOp", "op": "Const", "attr": {"value": {"tensor": {"dtype": "DT_FLOAT", "tensorShape": {"dim": [{"size": "64"}]}}}, "dtype": {"type": "DT_FLOAT"}}}, {"name": "StatefulPartitionedCall/model_2/UpCunet2x/UpCunet2x.unet2/UpCunet2x.unet2.conv1_down/Conv2D/ReadVariableOp", "op": "Const", "attr": {"value": {"tensor": {"dtype": "DT_FLOAT", "tensorShape": {"dim": [{"size": "2"}, {"size": "2"}, {"size": "64"}, {"size": "64"}]}}}, "dtype": {"type": "DT_FLOAT"}}}, {"name": "StatefulPartitionedCall/model_2/UpCunet2x/UpCunet2x.unet2/UpCunet2x.unet2.conv1_down/BiasAdd/ReadVariableOp", "op": "Const", "attr": {"value": {"tensor": {"dtype": "DT_FLOAT", "tensorShape": {"dim": [{"size": "64"}]}}}, "dtype": {"type": "DT_FLOAT"}}}, {"name": "StatefulPartitionedCall/model_2/UpCunet2x/UpCunet2x.unet2/UpCunet2x.unet2.conv2/sequential_15/UpCunet2x.unet2.conv2.conv.0/Conv2D/ReadVariableOp", "op": "Const", "attr": {"value": {"tensor": {"dtype": "DT_FLOAT", "tensorShape": {"dim": [{"size": "3"}, {"size": "3"}, {"size": "64"}, {"size": "64"}]}}}, "dtype": {"type": "DT_FLOAT"}}}, {"name": "StatefulPartitionedCall/model_2/UpCunet2x/UpCunet2x.unet2/UpCunet2x.unet2.conv2/sequential_15/UpCunet2x.unet2.conv2.conv.0/BiasAdd/ReadVariableOp", "op": "Const", "attr": {"value": {"tensor": {"dtype": "DT_FLOAT", "tensorShape": {"dim": [{"size": "64"}]}}}, "dtype": {"type": "DT_FLOAT"}}}, {"name": "StatefulPartitionedCall/model_2/UpCunet2x/UpCunet2x.unet2/UpCunet2x.unet2.conv2/sequential_15/UpCunet2x.unet2.conv2.conv.2/Conv2D/ReadVariableOp", "op": "Const", "attr": {"value": {"tensor": {"dtype": "DT_FLOAT", "tensorShape": {"dim": [{"size": "3"}, {"size": "3"}, {"size": "64"}, {"size": "128"}]}}}, "dtype": {"type": "DT_FLOAT"}}}, {"name": "StatefulPartitionedCall/model_2/UpCunet2x/UpCunet2x.unet2/UpCunet2x.unet2.conv2/sequential_15/UpCunet2x.unet2.conv2.conv.2/BiasAdd/ReadVariableOp", "op": "Const", "attr": {"value": {"tensor": {"dtype": "DT_FLOAT", "tensorShape": {"dim": [{"size": "128"}]}}}, "dtype": {"type": "DT_FLOAT"}}}, {"name": "StatefulPartitionedCall/model_2/UpCunet2x/UpCunet2x.unet2/UpCunet2x.unet2.conv2/UpCunet2x.unet2.conv2.seblock/Mean/reduction_indices", "op": "Const", "attr": {"value": {"tensor": {"dtype": "DT_INT32", "tensorShape": {"dim": [{"size": "2"}]}}}, "dtype": {"type": "DT_INT32"}}}, {"name": "StatefulPartitionedCall/model_2/UpCunet2x/UpCunet2x.unet2/UpCunet2x.unet2.conv2/UpCunet2x.unet2.conv2.seblock/UpCunet2x.unet2.conv2.seblock.conv1/Conv2D/ReadVariableOp", "op": "Const", "attr": {"value": {"tensor": {"dtype": "DT_FLOAT", "tensorShape": {"dim": [{"size": "1"}, {"size": "1"}, {"size": "128"}, {"size": "16"}]}}}, "dtype": {"type": "DT_FLOAT"}}}, {"name": "StatefulPartitionedCall/model_2/UpCunet2x/UpCunet2x.unet2/UpCunet2x.unet2.conv2/UpCunet2x.unet2.conv2.seblock/UpCunet2x.unet2.conv2.seblock.conv1/BiasAdd/ReadVariableOp", "op": "Const", "attr": {"value": {"tensor": {"dtype": "DT_FLOAT", "tensorShape": {"dim": [{"size": "16"}]}}}, "dtype": {"type": "DT_FLOAT"}}}, {"name": "StatefulPartitionedCall/model_2/UpCunet2x/UpCunet2x.unet2/UpCunet2x.unet2.conv2/UpCunet2x.unet2.conv2.seblock/UpCunet2x.unet2.conv2.seblock.conv2/Conv2D/ReadVariableOp", "op": "Const", "attr": {"value": {"tensor": {"dtype": "DT_FLOAT", "tensorShape": {"dim": [{"size": "1"}, {"size": "1"}, {"size": "16"}, {"size": "128"}]}}}, "dtype": {"type": "DT_FLOAT"}}}, {"name": "StatefulPartitionedCall/model_2/UpCunet2x/UpCunet2x.unet2/UpCunet2x.unet2.conv2/UpCunet2x.unet2.conv2.seblock/UpCunet2x.unet2.conv2.seblock.conv2/BiasAdd/ReadVariableOp", "op": "Const", "attr": {"value": {"tensor": {"dtype": "DT_FLOAT", "tensorShape": {"dim": [{"size": "128"}]}}}, "dtype": {"type": "DT_FLOAT"}}}, {"name": "StatefulPartitionedCall/model_2/UpCunet2x/UpCunet2x.unet2/UpCunet2x.unet2.conv2_down/Conv2D/ReadVariableOp", "op": "Const", "attr": {"value": {"tensor": {"dtype": "DT_FLOAT", "tensorShape": {"dim": [{"size": "2"}, {"size": "2"}, {"size": "128"}, {"size": "128"}]}}}, "dtype": {"type": "DT_FLOAT"}}}, {"name": "StatefulPartitionedCall/model_2/UpCunet2x/UpCunet2x.unet2/UpCunet2x.unet2.conv2_down/BiasAdd/ReadVariableOp", "op": "Const", "attr": {"value": {"tensor": {"dtype": "DT_FLOAT", "tensorShape": {"dim": [{"size": "128"}]}}}, "dtype": {"type": "DT_FLOAT"}}}, {"name": "StatefulPartitionedCall/model_2/UpCunet2x/UpCunet2x.unet2/UpCunet2x.unet2.conv3/sequential_16/UpCunet2x.unet2.conv3.conv.0/Conv2D/ReadVariableOp", "op": "Const", "attr": {"value": {"tensor": {"dtype": "DT_FLOAT", "tensorShape": {"dim": [{"size": "3"}, {"size": "3"}, {"size": "128"}, {"size": "256"}]}}}, "dtype": {"type": "DT_FLOAT"}}}, {"name": "StatefulPartitionedCall/model_2/UpCunet2x/UpCunet2x.unet2/UpCunet2x.unet2.conv3/sequential_16/UpCunet2x.unet2.conv3.conv.0/BiasAdd/ReadVariableOp", "op": "Const", "attr": {"value": {"tensor": {"dtype": "DT_FLOAT", "tensorShape": {"dim": [{"size": "256"}]}}}, "dtype": {"type": "DT_FLOAT"}}}, {"name": "StatefulPartitionedCall/model_2/UpCunet2x/UpCunet2x.unet2/UpCunet2x.unet2.conv3/sequential_16/UpCunet2x.unet2.conv3.conv.2/Conv2D/ReadVariableOp", "op": "Const", "attr": {"value": {"tensor": {"dtype": "DT_FLOAT", "tensorShape": {"dim": [{"size": "3"}, {"size": "3"}, {"size": "256"}, {"size": "128"}]}}}, "dtype": {"type": "DT_FLOAT"}}}, {"name": "StatefulPartitionedCall/model_2/UpCunet2x/UpCunet2x.unet2/UpCunet2x.unet2.conv3/sequential_16/UpCunet2x.unet2.conv3.conv.2/BiasAdd/ReadVariableOp", "op": "Const", "attr": {"value": {"tensor": {"dtype": "DT_FLOAT", "tensorShape": {"dim": [{"size": "128"}]}}}, "dtype": {"type": "DT_FLOAT"}}}, {"name": "StatefulPartitionedCall/model_2/UpCunet2x/UpCunet2x.unet2/UpCunet2x.unet2.conv3/UpCunet2x.unet2.conv3.seblock/Mean/reduction_indices", "op": "Const", "attr": {"value": {"tensor": {"dtype": "DT_INT32", "tensorShape": {"dim": [{"size": "2"}]}}}, "dtype": {"type": "DT_INT32"}}}, {"name": "StatefulPartitionedCall/model_2/UpCunet2x/UpCunet2x.unet2/UpCunet2x.unet2.conv3/UpCunet2x.unet2.conv3.seblock/UpCunet2x.unet2.conv3.seblock.conv1/Conv2D/ReadVariableOp", "op": "Const", "attr": {"value": {"tensor": {"dtype": "DT_FLOAT", "tensorShape": {"dim": [{"size": "1"}, {"size": "1"}, {"size": "128"}, {"size": "16"}]}}}, "dtype": {"type": "DT_FLOAT"}}}, {"name": "StatefulPartitionedCall/model_2/UpCunet2x/UpCunet2x.unet2/UpCunet2x.unet2.conv3/UpCunet2x.unet2.conv3.seblock/UpCunet2x.unet2.conv3.seblock.conv1/BiasAdd/ReadVariableOp", "op": "Const", "attr": {"value": {"tensor": {"dtype": "DT_FLOAT", "tensorShape": {"dim": [{"size": "16"}]}}}, "dtype": {"type": "DT_FLOAT"}}}, {"name": "StatefulPartitionedCall/model_2/UpCunet2x/UpCunet2x.unet2/UpCunet2x.unet2.conv3/UpCunet2x.unet2.conv3.seblock/UpCunet2x.unet2.conv3.seblock.conv2/Conv2D/ReadVariableOp", "op": "Const", "attr": {"value": {"tensor": {"dtype": "DT_FLOAT", "tensorShape": {"dim": [{"size": "1"}, {"size": "1"}, {"size": "16"}, {"size": "128"}]}}}, "dtype": {"type": "DT_FLOAT"}}}, {"name": "StatefulPartitionedCall/model_2/UpCunet2x/UpCunet2x.unet2/UpCunet2x.unet2.conv3/UpCunet2x.unet2.conv3.seblock/UpCunet2x.unet2.conv3.seblock.conv2/BiasAdd/ReadVariableOp", "op": "Const", "attr": {"value": {"tensor": {"dtype": "DT_FLOAT", "tensorShape": {"dim": [{"size": "128"}]}}}, "dtype": {"type": "DT_FLOAT"}}}, {"name": "StatefulPartitionedCall/model_2/UpCunet2x/UpCunet2x.unet2/UpCunet2x.unet2.conv3_up/BiasAdd/ReadVariableOp", "op": "Const", "attr": {"value": {"tensor": {"dtype": "DT_FLOAT", "tensorShape": {"dim": [{"size": "128"}]}}}, "dtype": {"type": "DT_FLOAT"}}}, {"name": "StatefulPartitionedCall/model_2/UpCunet2x/UpCunet2x.unet2/UpCunet2x.unet2.conv4/sequential_17/UpCunet2x.unet2.conv4.conv.0/Conv2D/ReadVariableOp", "op": "Const", "attr": {"value": {"tensor": {"dtype": "DT_FLOAT", "tensorShape": {"dim": [{"size": "3"}, {"size": "3"}, {"size": "128"}, {"size": "64"}]}}}, "dtype": {"type": "DT_FLOAT"}}}, {"name": "StatefulPartitionedCall/model_2/UpCunet2x/UpCunet2x.unet2/UpCunet2x.unet2.conv4/sequential_17/UpCunet2x.unet2.conv4.conv.0/BiasAdd/ReadVariableOp", "op": "Const", "attr": {"value": {"tensor": {"dtype": "DT_FLOAT", "tensorShape": {"dim": [{"size": "64"}]}}}, "dtype": {"type": "DT_FLOAT"}}}, {"name": "StatefulPartitionedCall/model_2/UpCunet2x/UpCunet2x.unet2/UpCunet2x.unet2.conv4/sequential_17/UpCunet2x.unet2.conv4.conv.2/Conv2D/ReadVariableOp", "op": "Const", "attr": {"value": {"tensor": {"dtype": "DT_FLOAT", "tensorShape": {"dim": [{"size": "3"}, {"size": "3"}, {"size": "64"}, {"size": "64"}]}}}, "dtype": {"type": "DT_FLOAT"}}}, {"name": "StatefulPartitionedCall/model_2/UpCunet2x/UpCunet2x.unet2/UpCunet2x.unet2.conv4/sequential_17/UpCunet2x.unet2.conv4.conv.2/BiasAdd/ReadVariableOp", "op": "Const", "attr": {"value": {"tensor": {"dtype": "DT_FLOAT", "tensorShape": {"dim": [{"size": "64"}]}}}, "dtype": {"type": "DT_FLOAT"}}}, {"name": "StatefulPartitionedCall/model_2/UpCunet2x/UpCunet2x.unet2/UpCunet2x.unet2.conv4/UpCunet2x.unet2.conv4.seblock/Mean/reduction_indices", "op": "Const", "attr": {"value": {"tensor": {"dtype": "DT_INT32", "tensorShape": {"dim": [{"size": "2"}]}}}, "dtype": {"type": "DT_INT32"}}}, {"name": "StatefulPartitionedCall/model_2/UpCunet2x/UpCunet2x.unet2/UpCunet2x.unet2.conv4/UpCunet2x.unet2.conv4.seblock/UpCunet2x.unet2.conv4.seblock.conv1/Conv2D/ReadVariableOp", "op": "Const", "attr": {"value": {"tensor": {"dtype": "DT_FLOAT", "tensorShape": {"dim": [{"size": "1"}, {"size": "1"}, {"size": "64"}, {"size": "8"}]}}}, "dtype": {"type": "DT_FLOAT"}}}, {"name": "StatefulPartitionedCall/model_2/UpCunet2x/UpCunet2x.unet2/UpCunet2x.unet2.conv4/UpCunet2x.unet2.conv4.seblock/UpCunet2x.unet2.conv4.seblock.conv1/BiasAdd/ReadVariableOp", "op": "Const", "attr": {"value": {"tensor": {"dtype": "DT_FLOAT", "tensorShape": {"dim": [{"size": "8"}]}}}, "dtype": {"type": "DT_FLOAT"}}}, {"name": "StatefulPartitionedCall/model_2/UpCunet2x/UpCunet2x.unet2/UpCunet2x.unet2.conv4/UpCunet2x.unet2.conv4.seblock/UpCunet2x.unet2.conv4.seblock.conv2/Conv2D/ReadVariableOp", "op": "Const", "attr": {"value": {"tensor": {"dtype": "DT_FLOAT", "tensorShape": {"dim": [{"size": "1"}, {"size": "1"}, {"size": "8"}, {"size": "64"}]}}}, "dtype": {"type": "DT_FLOAT"}}}, {"name": "StatefulPartitionedCall/model_2/UpCunet2x/UpCunet2x.unet2/UpCunet2x.unet2.conv4/UpCunet2x.unet2.conv4.seblock/UpCunet2x.unet2.conv4.seblock.conv2/BiasAdd/ReadVariableOp", "op": "Const", "attr": {"value": {"tensor": {"dtype": "DT_FLOAT", "tensorShape": {"dim": [{"size": "64"}]}}}, "dtype": {"type": "DT_FLOAT"}}}, {"name": "StatefulPartitionedCall/model_2/UpCunet2x/UpCunet2x.unet2/UpCunet2x.unet2.conv4_up/BiasAdd/ReadVariableOp", "op": "Const", "attr": {"value": {"tensor": {"dtype": "DT_FLOAT", "tensorShape": {"dim": [{"size": "64"}]}}}, "dtype": {"type": "DT_FLOAT"}}}, {"name": "StatefulPartitionedCall/model_2/UpCunet2x/UpCunet2x.unet2/UpCunet2x.unet2.conv5/Conv2D/ReadVariableOp", "op": "Const", "attr": {"value": {"tensor": {"dtype": "DT_FLOAT", "tensorShape": {"dim": [{"size": "3"}, {"size": "3"}, {"size": "64"}, {"size": "64"}]}}}, "dtype": {"type": "DT_FLOAT"}}}, {"name": "StatefulPartitionedCall/model_2/UpCunet2x/UpCunet2x.unet2/UpCunet2x.unet2.conv5/BiasAdd/ReadVariableOp", "op": "Const", "attr": {"value": {"tensor": {"dtype": "DT_FLOAT", "tensorShape": {"dim": [{"size": "64"}]}}}, "dtype": {"type": "DT_FLOAT"}}}, {"name": "StatefulPartitionedCall/model_2/UpCunet2x/UpCunet2x.unet2/UpCunet2x.unet2.conv_bottom/Conv2D/ReadVariableOp", "op": "Const", "attr": {"value": {"tensor": {"dtype": "DT_FLOAT", "tensorShape": {"dim": [{"size": "3"}, {"size": "3"}, {"size": "64"}, {"size": "3"}]}}}, "dtype": {"type": "DT_FLOAT"}}}, {"name": "StatefulPartitionedCall/model_2/UpCunet2x/UpCunet2x.unet2/UpCunet2x.unet2.conv_bottom/BiasAdd/ReadVariableOp", "op": "Const", "attr": {"value": {"tensor": {"dtype": "DT_FLOAT", "tensorShape": {"dim": [{"size": "3"}]}}}, "dtype": {"type": "DT_FLOAT"}}}, {"name": "StatefulPartitionedCall/model_2/UpCunet2x/UpCunet2x.unet1/UpCunet2x.unet1.conv_bottom/strided_slice/stack", "op": "Const", "attr": {"value": {"tensor": {"dtype": "DT_INT32", "tensorShape": {"dim": [{"size": "1"}]}}}, "dtype": {"type": "DT_INT32"}}}, {"name": "StatefulPartitionedCall/model_2/UpCunet2x/UpCunet2x.unet1/UpCunet2x.unet1.conv_bottom/strided_slice/stack_1", "op": "Const", "attr": {"value": {"tensor": {"dtype": "DT_INT32", "tensorShape": {"dim": [{"size": "1"}]}}}, "dtype": {"type": "DT_INT32"}}}, {"name": "StatefulPartitionedCall/model_2/UpCunet2x/UpCunet2x.unet1/UpCunet2x.unet1.conv_bottom/strided_slice/stack_2", "op": "Const", "attr": {"value": {"tensor": {"dtype": "DT_INT32", "tensorShape": {"dim": [{"size": "1"}]}}}, "dtype": {"type": "DT_INT32"}}}, {"name": "StatefulPartitionedCall/model_2/UpCunet2x/UpCunet2x.unet1/UpCunet2x.unet1.conv_bottom/strided_slice_1/stack", "op": "Const", "attr": {"value": {"tensor": {"dtype": "DT_INT32", "tensorShape": {"dim": [{"size": "1"}]}}}, "dtype": {"type": "DT_INT32"}}}, {"name": "StatefulPartitionedCall/model_2/UpCunet2x/UpCunet2x.unet1/UpCunet2x.unet1.conv_bottom/strided_slice_1/stack_1", "op": "Const", "attr": {"value": {"tensor": {"dtype": "DT_INT32", "tensorShape": {"dim": [{"size": "1"}]}}}, "dtype": {"type": "DT_INT32"}}}, {"name": "StatefulPartitionedCall/model_2/UpCunet2x/UpCunet2x.unet1/UpCunet2x.unet1.conv_bottom/strided_slice_1/stack_2", "op": "Const", "attr": {"value": {"tensor": {"dtype": "DT_INT32", "tensorShape": {"dim": [{"size": "1"}]}}}, "dtype": {"type": "DT_INT32"}}}, {"name": "StatefulPartitionedCall/model_2/UpCunet2x/UpCunet2x.unet1/UpCunet2x.unet1.conv_bottom/mul/y", "op": "Const", "attr": {"value": {"tensor": {"dtype": "DT_INT32", "tensorShape": {}}}, "dtype": {"type": "DT_INT32"}}}, {"name": "StatefulPartitionedCall/model_2/UpCunet2x/UpCunet2x.unet1/UpCunet2x.unet1.conv_bottom/add/y", "op": "Const", "attr": {"value": {"tensor": {"dtype": "DT_INT32", "tensorShape": {}}}, "dtype": {"type": "DT_INT32"}}}, {"name": "StatefulPartitionedCall/model_2/UpCunet2x/UpCunet2x.unet1/UpCunet2x.unet1.conv_bottom/strided_slice_2/stack", "op": "Const", "attr": {"value": {"tensor": {"dtype": "DT_INT32", "tensorShape": {"dim": [{"size": "1"}]}}}, "dtype": {"type": "DT_INT32"}}}, {"name": "StatefulPartitionedCall/model_2/UpCunet2x/UpCunet2x.unet1/UpCunet2x.unet1.conv_bottom/strided_slice_2/stack_1", "op": "Const", "attr": {"value": {"tensor": {"dtype": "DT_INT32", "tensorShape": {"dim": [{"size": "1"}]}}}, "dtype": {"type": "DT_INT32"}}}, {"name": "StatefulPartitionedCall/model_2/UpCunet2x/UpCunet2x.unet1/UpCunet2x.unet1.conv_bottom/strided_slice_2/stack_2", "op": "Const", "attr": {"value": {"tensor": {"dtype": "DT_INT32", "tensorShape": {"dim": [{"size": "1"}]}}}, "dtype": {"type": "DT_INT32"}}}, {"name": "StatefulPartitionedCall/model_2/UpCunet2x/UpCunet2x.unet1/UpCunet2x.unet1.conv_bottom/mul_1/y", "op": "Const", "attr": {"value": {"tensor": {"dtype": "DT_INT32", "tensorShape": {}}}, "dtype": {"type": "DT_INT32"}}}, {"name": "StatefulPartitionedCall/model_2/UpCunet2x/UpCunet2x.unet1/UpCunet2x.unet1.conv_bottom/add_1/y", "op": "Const", "attr": {"value": {"tensor": {"dtype": "DT_INT32", "tensorShape": {}}}, "dtype": {"type": "DT_INT32"}}}, {"name": "StatefulPartitionedCall/model_2/UpCunet2x/UpCunet2x.unet1/UpCunet2x.unet1.conv_bottom/stack/3", "op": "Const", "attr": {"value": {"tensor": {"dtype": "DT_INT32", "tensorShape": {}}}, "dtype": {"type": "DT_INT32"}}}, {"name": "StatefulPartitionedCall/model_2/UpCunet2x/UpCunet2x.unet1/UpCunet2x.unet1.conv_bottom/conv2d_transpose/ReadVariableOp", "op": "Const", "attr": {"value": {"tensor": {"dtype": "DT_FLOAT", "tensorShape": {"dim": [{"size": "4"}, {"size": "4"}, {"size": "3"}, {"size": "64"}]}}}, "dtype": {"type": "DT_FLOAT"}}}, {"name": "StatefulPartitionedCall/model_2/UpCunet2x/UpCunet2x.unet1/strided_slice/stack", "op": "Const", "attr": {"value": {"tensor": {"dtype": "DT_INT32", "tensorShape": {"dim": [{"size": "4"}]}}}, "dtype": {"type": "DT_INT32"}}}, {"name": "StatefulPartitionedCall/model_2/UpCunet2x/UpCunet2x.unet1/strided_slice/stack_1", "op": "Const", "attr": {"value": {"tensor": {"dtype": "DT_INT32", "tensorShape": {"dim": [{"size": "4"}]}}}, "dtype": {"type": "DT_INT32"}}}, {"name": "StatefulPartitionedCall/model_2/UpCunet2x/UpCunet2x.unet1/strided_slice/stack_2", "op": "Const", "attr": {"value": {"tensor": {"dtype": "DT_INT32", "tensorShape": {"dim": [{"size": "4"}]}}}, "dtype": {"type": "DT_INT32"}}}, {"name": "StatefulPartitionedCall/model_2/UpCunet2x/UpCunet2x.unet1/UpCunet2x.unet1.conv2_up/strided_slice/stack", "op": "Const", "attr": {"value": {"tensor": {"dtype": "DT_INT32", "tensorShape": {"dim": [{"size": "1"}]}}}, "dtype": {"type": "DT_INT32"}}}, {"name": "StatefulPartitionedCall/model_2/UpCunet2x/UpCunet2x.unet1/UpCunet2x.unet1.conv2_up/strided_slice/stack_1", "op": "Const", "attr": {"value": {"tensor": {"dtype": "DT_INT32", "tensorShape": {"dim": [{"size": "1"}]}}}, "dtype": {"type": "DT_INT32"}}}, {"name": "StatefulPartitionedCall/model_2/UpCunet2x/UpCunet2x.unet1/UpCunet2x.unet1.conv2_up/strided_slice/stack_2", "op": "Const", "attr": {"value": {"tensor": {"dtype": "DT_INT32", "tensorShape": {"dim": [{"size": "1"}]}}}, "dtype": {"type": "DT_INT32"}}}, {"name": "StatefulPartitionedCall/model_2/UpCunet2x/UpCunet2x.unet1/UpCunet2x.unet1.conv2_up/strided_slice_1/stack", "op": "Const", "attr": {"value": {"tensor": {"dtype": "DT_INT32", "tensorShape": {"dim": [{"size": "1"}]}}}, "dtype": {"type": "DT_INT32"}}}, {"name": "StatefulPartitionedCall/model_2/UpCunet2x/UpCunet2x.unet1/UpCunet2x.unet1.conv2_up/strided_slice_1/stack_1", "op": "Const", "attr": {"value": {"tensor": {"dtype": "DT_INT32", "tensorShape": {"dim": [{"size": "1"}]}}}, "dtype": {"type": "DT_INT32"}}}, {"name": "StatefulPartitionedCall/model_2/UpCunet2x/UpCunet2x.unet1/UpCunet2x.unet1.conv2_up/strided_slice_1/stack_2", "op": "Const", "attr": {"value": {"tensor": {"dtype": "DT_INT32", "tensorShape": {"dim": [{"size": "1"}]}}}, "dtype": {"type": "DT_INT32"}}}, {"name": "StatefulPartitionedCall/model_2/UpCunet2x/UpCunet2x.unet1/UpCunet2x.unet1.conv2_up/mul/y", "op": "Const", "attr": {"value": {"tensor": {"dtype": "DT_INT32", "tensorShape": {}}}, "dtype": {"type": "DT_INT32"}}}, {"name": "StatefulPartitionedCall/model_2/UpCunet2x/UpCunet2x.unet1/UpCunet2x.unet1.conv2_up/strided_slice_2/stack", "op": "Const", "attr": {"value": {"tensor": {"dtype": "DT_INT32", "tensorShape": {"dim": [{"size": "1"}]}}}, "dtype": {"type": "DT_INT32"}}}, {"name": "StatefulPartitionedCall/model_2/UpCunet2x/UpCunet2x.unet1/UpCunet2x.unet1.conv2_up/strided_slice_2/stack_1", "op": "Const", "attr": {"value": {"tensor": {"dtype": "DT_INT32", "tensorShape": {"dim": [{"size": "1"}]}}}, "dtype": {"type": "DT_INT32"}}}, {"name": "StatefulPartitionedCall/model_2/UpCunet2x/UpCunet2x.unet1/UpCunet2x.unet1.conv2_up/strided_slice_2/stack_2", "op": "Const", "attr": {"value": {"tensor": {"dtype": "DT_INT32", "tensorShape": {"dim": [{"size": "1"}]}}}, "dtype": {"type": "DT_INT32"}}}, {"name": "StatefulPartitionedCall/model_2/UpCunet2x/UpCunet2x.unet1/UpCunet2x.unet1.conv2_up/mul_1/y", "op": "Const", "attr": {"value": {"tensor": {"dtype": "DT_INT32", "tensorShape": {}}}, "dtype": {"type": "DT_INT32"}}}, {"name": "StatefulPartitionedCall/model_2/UpCunet2x/UpCunet2x.unet1/UpCunet2x.unet1.conv2_up/stack/3", "op": "Const", "attr": {"value": {"tensor": {"dtype": "DT_INT32", "tensorShape": {}}}, "dtype": {"type": "DT_INT32"}}}, {"name": "StatefulPartitionedCall/model_2/UpCunet2x/UpCunet2x.unet1/UpCunet2x.unet1.conv2_up/conv2d_transpose/ReadVariableOp", "op": "Const", "attr": {"value": {"tensor": {"dtype": "DT_FLOAT", "tensorShape": {"dim": [{"size": "2"}, {"size": "2"}, {"size": "64"}, {"size": "64"}]}}}, "dtype": {"type": "DT_FLOAT"}}}, {"name": "StatefulPartitionedCall/model_2/UpCunet2x/MirrorPad/paddings/0_1", "op": "Const", "attr": {"value": {"tensor": {"dtype": "DT_INT32", "tensorShape": {"dim": [{"size": "2"}]}}}, "dtype": {"type": "DT_INT32"}}}, {"name": "StatefulPartitionedCall/model_2/UpCunet2x/MirrorPad/paddings/1/0", "op": "Const", "attr": {"value": {"tensor": {"dtype": "DT_INT32", "tensorShape": {}}}, "dtype": {"type": "DT_INT32"}}}, {"name": "StatefulPartitionedCall/model_2/UpCunet2x/add_3/x", "op": "Const", "attr": {"value": {"tensor": {"dtype": "DT_INT32", "tensorShape": {}}}, "dtype": {"type": "DT_INT32"}}}, {"name": "StatefulPartitionedCall/model_2/UpCunet2x/sub/y", "op": "Const", "attr": {"value": {"tensor": {"dtype": "DT_INT32", "tensorShape": {}}}, "dtype": {"type": "DT_INT32"}}}, {"name": "StatefulPartitionedCall/model_2/UpCunet2x/floordiv/y", "op": "Const", "attr": {"value": {"tensor": {"dtype": "DT_INT32", "tensorShape": {}}}, "dtype": {"type": "DT_INT32"}}}, {"name": "StatefulPartitionedCall/model_2/UpCunet2x/add_1/y", "op": "Const", "attr": {"value": {"tensor": {"dtype": "DT_INT32", "tensorShape": {}}}, "dtype": {"type": "DT_INT32"}}}, {"name": "StatefulPartitionedCall/model_2/UpCunet2x/mul/y", "op": "Const", "attr": {"value": {"tensor": {"dtype": "DT_INT32", "tensorShape": {}}}, "dtype": {"type": "DT_INT32"}}}, {"name": "StatefulPartitionedCall/model_2/UpCunet2x/strided_slice_1/stack", "op": "Const", "attr": {"value": {"tensor": {"dtype": "DT_INT32", "tensorShape": {"dim": [{"size": "1"}]}}}, "dtype": {"type": "DT_INT32"}}}, {"name": "StatefulPartitionedCall/model_2/UpCunet2x/strided_slice_1/stack_1", "op": "Const", "attr": {"value": {"tensor": {"dtype": "DT_INT32", "tensorShape": {"dim": [{"size": "1"}]}}}, "dtype": {"type": "DT_INT32"}}}, {"name": "StatefulPartitionedCall/model_2/UpCunet2x/strided_slice_1/stack_2", "op": "Const", "attr": {"value": {"tensor": {"dtype": "DT_INT32", "tensorShape": {"dim": [{"size": "1"}]}}}, "dtype": {"type": "DT_INT32"}}}, {"name": "StatefulPartitionedCall/model_2/UpCunet2x/MirrorPad/paddings/2/0", "op": "Const", "attr": {"value": {"tensor": {"dtype": "DT_INT32", "tensorShape": {}}}, "dtype": {"type": "DT_INT32"}}}, {"name": "StatefulPartitionedCall/model_2/UpCunet2x/add_4/x", "op": "Const", "attr": {"value": {"tensor": {"dtype": "DT_INT32", "tensorShape": {}}}, "dtype": {"type": "DT_INT32"}}}, {"name": "StatefulPartitionedCall/model_2/UpCunet2x/sub_1/y", "op": "Const", "attr": {"value": {"tensor": {"dtype": "DT_INT32", "tensorShape": {}}}, "dtype": {"type": "DT_INT32"}}}, {"name": "StatefulPartitionedCall/model_2/UpCunet2x/floordiv_1/y", "op": "Const", "attr": {"value": {"tensor": {"dtype": "DT_INT32", "tensorShape": {}}}, "dtype": {"type": "DT_INT32"}}}, {"name": "StatefulPartitionedCall/model_2/UpCunet2x/add_2/y", "op": "Const", "attr": {"value": {"tensor": {"dtype": "DT_INT32", "tensorShape": {}}}, "dtype": {"type": "DT_INT32"}}}, {"name": "StatefulPartitionedCall/model_2/UpCunet2x/mul_1/y", "op": "Const", "attr": {"value": {"tensor": {"dtype": "DT_INT32", "tensorShape": {}}}, "dtype": {"type": "DT_INT32"}}}, {"name": "ConstantFolding/StatefulPartitionedCall/model_2/UpCunet2x/truediv_recip", "op": "Const", "attr": {"value": {"tensor": {"dtype": "DT_FLOAT", "tensorShape": {}}}, "dtype": {"type": "DT_FLOAT"}}}, {"name": "StatefulPartitionedCall/model_2/UpCunet2x/add/y", "op": "Const", "attr": {"value": {"tensor": {"dtype": "DT_FLOAT", "tensorShape": {}}}, "dtype": {"type": "DT_FLOAT"}}}, {"name": "StatefulPartitionedCall/model_2/UpCunet2x/strided_slice_2/stack", "op": "Const", "attr": {"value": {"tensor": {"dtype": "DT_INT32", "tensorShape": {"dim": [{"size": "1"}]}}}, "dtype": {"type": "DT_INT32"}}}, {"name": "StatefulPartitionedCall/model_2/UpCunet2x/strided_slice_2/stack_1", "op": "Const", "attr": {"value": {"tensor": {"dtype": "DT_INT32", "tensorShape": {"dim": [{"size": "1"}]}}}, "dtype": {"type": "DT_INT32"}}}, {"name": "StatefulPartitionedCall/model_2/UpCunet2x/strided_slice_2/stack_2", "op": "Const", "attr": {"value": {"tensor": {"dtype": "DT_INT32", "tensorShape": {"dim": [{"size": "1"}]}}}, "dtype": {"type": "DT_INT32"}}}, {"name": "StatefulPartitionedCall/model_2/UpCunet2x/MirrorPad/paddings/3_1", "op": "Const", "attr": {"value": {"tensor": {"dtype": "DT_INT32", "tensorShape": {"dim": [{"size": "2"}]}}}, "dtype": {"type": "DT_INT32"}}}, {"name": "StatefulPartitionedCall/model_2/UpCunet2x/UpCunet2x.unet1/UpCunet2x.unet1.conv1/sequential_12/UpCunet2x.unet1.conv1.conv.0/Conv2D/ReadVariableOp", "op": "Const", "attr": {"value": {"tensor": {"dtype": "DT_FLOAT", "tensorShape": {"dim": [{"size": "3"}, {"size": "3"}, {"size": "3"}, {"size": "32"}]}}}, "dtype": {"type": "DT_FLOAT"}}}, {"name": "StatefulPartitionedCall/model_2/UpCunet2x/UpCunet2x.unet1/UpCunet2x.unet1.conv1/sequential_12/UpCunet2x.unet1.conv1.conv.0/BiasAdd/ReadVariableOp", "op": "Const", "attr": {"value": {"tensor": {"dtype": "DT_FLOAT", "tensorShape": {"dim": [{"size": "32"}]}}}, "dtype": {"type": "DT_FLOAT"}}}, {"name": "StatefulPartitionedCall/model_2/UpCunet2x/UpCunet2x.unet1/UpCunet2x.unet1.conv1/sequential_12/UpCunet2x.unet1.conv1.conv.2/Conv2D/ReadVariableOp", "op": "Const", "attr": {"value": {"tensor": {"dtype": "DT_FLOAT", "tensorShape": {"dim": [{"size": "3"}, {"size": "3"}, {"size": "32"}, {"size": "64"}]}}}, "dtype": {"type": "DT_FLOAT"}}}, {"name": "StatefulPartitionedCall/model_2/UpCunet2x/UpCunet2x.unet1/UpCunet2x.unet1.conv1/sequential_12/UpCunet2x.unet1.conv1.conv.2/BiasAdd/ReadVariableOp", "op": "Const", "attr": {"value": {"tensor": {"dtype": "DT_FLOAT", "tensorShape": {"dim": [{"size": "64"}]}}}, "dtype": {"type": "DT_FLOAT"}}}, {"name": "StatefulPartitionedCall/model_2/UpCunet2x/UpCunet2x.unet1/UpCunet2x.unet1.conv1_down/Conv2D/ReadVariableOp", "op": "Const", "attr": {"value": {"tensor": {"dtype": "DT_FLOAT", "tensorShape": {"dim": [{"size": "2"}, {"size": "2"}, {"size": "64"}, {"size": "64"}]}}}, "dtype": {"type": "DT_FLOAT"}}}, {"name": "StatefulPartitionedCall/model_2/UpCunet2x/UpCunet2x.unet1/UpCunet2x.unet1.conv1_down/BiasAdd/ReadVariableOp", "op": "Const", "attr": {"value": {"tensor": {"dtype": "DT_FLOAT", "tensorShape": {"dim": [{"size": "64"}]}}}, "dtype": {"type": "DT_FLOAT"}}}, {"name": "StatefulPartitionedCall/model_2/UpCunet2x/UpCunet2x.unet1/unet.conv2/sequential_13/unet.conv2.conv.0/Conv2D/ReadVariableOp", "op": "Const", "attr": {"value": {"tensor": {"dtype": "DT_FLOAT", "tensorShape": {"dim": [{"size": "3"}, {"size": "3"}, {"size": "64"}, {"size": "128"}]}}}, "dtype": {"type": "DT_FLOAT"}}}, {"name": "StatefulPartitionedCall/model_2/UpCunet2x/UpCunet2x.unet1/unet.conv2/sequential_13/unet.conv2.conv.0/BiasAdd/ReadVariableOp", "op": "Const", "attr": {"value": {"tensor": {"dtype": "DT_FLOAT", "tensorShape": {"dim": [{"size": "128"}]}}}, "dtype": {"type": "DT_FLOAT"}}}, {"name": "StatefulPartitionedCall/model_2/UpCunet2x/UpCunet2x.unet1/unet.conv2/sequential_13/unet.conv2.conv.2/Conv2D/ReadVariableOp", "op": "Const", "attr": {"value": {"tensor": {"dtype": "DT_FLOAT", "tensorShape": {"dim": [{"size": "3"}, {"size": "3"}, {"size": "128"}, {"size": "64"}]}}}, "dtype": {"type": "DT_FLOAT"}}}, {"name": "StatefulPartitionedCall/model_2/UpCunet2x/UpCunet2x.unet1/unet.conv2/sequential_13/unet.conv2.conv.2/BiasAdd/ReadVariableOp", "op": "Const", "attr": {"value": {"tensor": {"dtype": "DT_FLOAT", "tensorShape": {"dim": [{"size": "64"}]}}}, "dtype": {"type": "DT_FLOAT"}}}, {"name": "StatefulPartitionedCall/model_2/UpCunet2x/UpCunet2x.unet1/unet.conv2/unet.conv2.seblock/Mean/reduction_indices", "op": "Const", "attr": {"value": {"tensor": {"dtype": "DT_INT32", "tensorShape": {"dim": [{"size": "2"}]}}}, "dtype": {"type": "DT_INT32"}}}, {"name": "StatefulPartitionedCall/model_2/UpCunet2x/UpCunet2x.unet1/unet.conv2/unet.conv2.seblock/unet.conv2.seblock.conv1/Conv2D/ReadVariableOp", "op": "Const", "attr": {"value": {"tensor": {"dtype": "DT_FLOAT", "tensorShape": {"dim": [{"size": "1"}, {"size": "1"}, {"size": "64"}, {"size": "8"}]}}}, "dtype": {"type": "DT_FLOAT"}}}, {"name": "StatefulPartitionedCall/model_2/UpCunet2x/UpCunet2x.unet1/unet.conv2/unet.conv2.seblock/unet.conv2.seblock.conv1/BiasAdd/ReadVariableOp", "op": "Const", "attr": {"value": {"tensor": {"dtype": "DT_FLOAT", "tensorShape": {"dim": [{"size": "8"}]}}}, "dtype": {"type": "DT_FLOAT"}}}, {"name": "StatefulPartitionedCall/model_2/UpCunet2x/UpCunet2x.unet1/unet.conv2/unet.conv2.seblock/unet.conv2.seblock.conv2/Conv2D/ReadVariableOp", "op": "Const", "attr": {"value": {"tensor": {"dtype": "DT_FLOAT", "tensorShape": {"dim": [{"size": "1"}, {"size": "1"}, {"size": "8"}, {"size": "64"}]}}}, "dtype": {"type": "DT_FLOAT"}}}, {"name": "StatefulPartitionedCall/model_2/UpCunet2x/UpCunet2x.unet1/unet.conv2/unet.conv2.seblock/unet.conv2.seblock.conv2/BiasAdd/ReadVariableOp", "op": "Const", "attr": {"value": {"tensor": {"dtype": "DT_FLOAT", "tensorShape": {"dim": [{"size": "64"}]}}}, "dtype": {"type": "DT_FLOAT"}}}, {"name": "StatefulPartitionedCall/model_2/UpCunet2x/UpCunet2x.unet1/UpCunet2x.unet1.conv2_up/BiasAdd/ReadVariableOp", "op": "Const", "attr": {"value": {"tensor": {"dtype": "DT_FLOAT", "tensorShape": {"dim": [{"size": "64"}]}}}, "dtype": {"type": "DT_FLOAT"}}}, {"name": "StatefulPartitionedCall/model_2/UpCunet2x/UpCunet2x.unet1/UpCunet2x.unet1.conv3/Conv2D/ReadVariableOp", "op": "Const", "attr": {"value": {"tensor": {"dtype": "DT_FLOAT", "tensorShape": {"dim": [{"size": "3"}, {"size": "3"}, {"size": "64"}, {"size": "64"}]}}}, "dtype": {"type": "DT_FLOAT"}}}, {"name": "StatefulPartitionedCall/model_2/UpCunet2x/UpCunet2x.unet1/UpCunet2x.unet1.conv3/BiasAdd/ReadVariableOp", "op": "Const", "attr": {"value": {"tensor": {"dtype": "DT_FLOAT", "tensorShape": {"dim": [{"size": "64"}]}}}, "dtype": {"type": "DT_FLOAT"}}}, {"name": "StatefulPartitionedCall/model_2/UpCunet2x/UpCunet2x.unet1/UpCunet2x.unet1.conv_bottom/BiasAdd/ReadVariableOp", "op": "Const", "attr": {"value": {"tensor": {"dtype": "DT_FLOAT", "tensorShape": {"dim": [{"size": "3"}]}}}, "dtype": {"type": "DT_FLOAT"}}}, {"name": "StatefulPartitionedCall/model_2/UpCunet2x/UpCunet2x.unet1/strided_slice_1/stack", "op": "Const", "attr": {"value": {"tensor": {"dtype": "DT_INT32", "tensorShape": {"dim": [{"size": "4"}]}}}, "dtype": {"type": "DT_INT32"}}}, {"name": "StatefulPartitionedCall/model_2/UpCunet2x/UpCunet2x.unet1/strided_slice_1/stack_1", "op": "Const", "attr": {"value": {"tensor": {"dtype": "DT_INT32", "tensorShape": {"dim": [{"size": "4"}]}}}, "dtype": {"type": "DT_INT32"}}}, {"name": "StatefulPartitionedCall/model_2/UpCunet2x/UpCunet2x.unet1/strided_slice_1/stack_2", "op": "Const", "attr": {"value": {"tensor": {"dtype": "DT_INT32", "tensorShape": {"dim": [{"size": "4"}]}}}, "dtype": {"type": "DT_INT32"}}}, {"name": "StatefulPartitionedCall/model_2/UpCunet2x/strided_slice_4/stack", "op": "Const", "attr": {"value": {"tensor": {"dtype": "DT_INT32", "tensorShape": {"dim": [{"size": "4"}]}}}, "dtype": {"type": "DT_INT32"}}}, {"name": "StatefulPartitionedCall/model_2/UpCunet2x/strided_slice_4/stack_1", "op": "Const", "attr": {"value": {"tensor": {"dtype": "DT_INT32", "tensorShape": {"dim": [{"size": "4"}]}}}, "dtype": {"type": "DT_INT32"}}}, {"name": "StatefulPartitionedCall/model_2/UpCunet2x/strided_slice_4/stack_2", "op": "Const", "attr": {"value": {"tensor": {"dtype": "DT_INT32", "tensorShape": {"dim": [{"size": "4"}]}}}, "dtype": {"type": "DT_INT32"}}}, {"name": "StatefulPartitionedCall/model_2/UpCunet2x/sub_4/y", "op": "Const", "attr": {"value": {"tensor": {"dtype": "DT_FLOAT", "tensorShape": {}}}, "dtype": {"type": "DT_FLOAT"}}}, {"name": "StatefulPartitionedCall/model_2/UpCunet2x/mul_2/y", "op": "Const", "attr": {"value": {"tensor": {"dtype": "DT_FLOAT", "tensorShape": {}}}, "dtype": {"type": "DT_FLOAT"}}}, {"name": "StatefulPartitionedCall/model_2/UpCunet2x/clip_by_value/Minimum/y", "op": "Const", "attr": {"value": {"tensor": {"dtype": "DT_FLOAT", "tensorShape": {}}}, "dtype": {"type": "DT_FLOAT"}}}, {"name": "StatefulPartitionedCall/model_2/UpCunet2x/clip_by_value/y", "op": "Const", "attr": {"value": {"tensor": {"dtype": "DT_FLOAT", "tensorShape": {}}}, "dtype": {"type": "DT_FLOAT"}}}, {"name": "input_bytes", "op": "Placeholder", "attr": {"shape": {"shape": {"dim": [{"size": "-1"}, {"size": "-1"}, {"size": "-1"}, {"size": "3"}]}}, "dtype": {"type": "DT_UINT8"}}}, {"name": "StatefulPartitionedCall/model_2/UpCunet2x/Cast", "op": "Cast", "input": ["input_bytes"], "attr": {"SrcT": {"type": "DT_UINT8"}, "DstT": {"type": "DT_FLOAT"}, "Truncate": {"b": false}}}, {"name": "StatefulPartitionedCall/model_2/UpCunet2x/truediv", "op": "Mul", "input": ["StatefulPartitionedCall/model_2/UpCunet2x/Cast", "ConstantFolding/StatefulPartitionedCall/model_2/UpCunet2x/truediv_recip"], "attr": {"T": {"type": "DT_FLOAT"}}}, {"name": "StatefulPartitionedCall/model_2/UpCunet2x/add", "op": "AddV2", "input": ["StatefulPartitionedCall/model_2/UpCunet2x/truediv", "StatefulPartitionedCall/model_2/UpCunet2x/add/y"], "attr": {"T": {"type": "DT_FLOAT"}}}, {"name": "StatefulPartitionedCall/model_2/UpCunet2x/Shape", "op": "Shape", "input": ["StatefulPartitionedCall/model_2/UpCunet2x/add"], "attr": {"T": {"type": "DT_FLOAT"}, "out_type": {"type": "DT_INT32"}}, "experimentalType": {"typeId": "TFT_PRODUCT", "args": [{"typeId": "TFT_SHAPE_TENSOR", "args": [{"typeId": "TFT_INT32"}]}]}}, {"name": "StatefulPartitionedCall/model_2/UpCunet2x/strided_slice_1", "op": "StridedSlice", "input": ["StatefulPartitionedCall/model_2/UpCunet2x/Shape", "StatefulPartitionedCall/model_2/UpCunet2x/strided_slice_1/stack", "StatefulPartitionedCall/model_2/UpCunet2x/strided_slice_1/stack_1", "StatefulPartitionedCall/model_2/UpCunet2x/strided_slice_1/stack_2"], "attr": {"shrink_axis_mask": {"i": "1"}, "new_axis_mask": {"i": "0"}, "Index": {"type": "DT_INT32"}, "begin_mask": {"i": "0"}, "T": {"type": "DT_INT32"}, "end_mask": {"i": "0"}, "ellipsis_mask": {"i": "0"}}}, {"name": "StatefulPartitionedCall/model_2/UpCunet2x/strided_slice_2", "op": "StridedSlice", "input": ["StatefulPartitionedCall/model_2/UpCunet2x/Shape", "StatefulPartitionedCall/model_2/UpCunet2x/strided_slice_2/stack", "StatefulPartitionedCall/model_2/UpCunet2x/strided_slice_2/stack_1", "StatefulPartitionedCall/model_2/UpCunet2x/strided_slice_2/stack_2"], "attr": {"shrink_axis_mask": {"i": "1"}, "new_axis_mask": {"i": "0"}, "Index": {"type": "DT_INT32"}, "begin_mask": {"i": "0"}, "T": {"type": "DT_INT32"}, "end_mask": {"i": "0"}, "ellipsis_mask": {"i": "0"}}}, {"name": "StatefulPartitionedCall/model_2/UpCunet2x/sub", "op": "Sub", "input": ["StatefulPartitionedCall/model_2/UpCunet2x/strided_slice_1", "StatefulPartitionedCall/model_2/UpCunet2x/sub/y"], "attr": {"T": {"type": "DT_INT32"}}}, {"name": "StatefulPartitionedCall/model_2/UpCunet2x/sub_1", "op": "Sub", "input": ["StatefulPartitionedCall/model_2/UpCunet2x/strided_slice_2", "StatefulPartitionedCall/model_2/UpCunet2x/sub_1/y"], "attr": {"T": {"type": "DT_INT32"}}}, {"name": "StatefulPartitionedCall/model_2/UpCunet2x/floordiv", "op": "FloorDiv", "input": ["StatefulPartitionedCall/model_2/UpCunet2x/sub", "StatefulPartitionedCall/model_2/UpCunet2x/floordiv/y"], "attr": {"T": {"type": "DT_INT32"}}}, {"name": "StatefulPartitionedCall/model_2/UpCunet2x/floordiv_1", "op": "FloorDiv", "input": ["StatefulPartitionedCall/model_2/UpCunet2x/sub_1", "StatefulPartitionedCall/model_2/UpCunet2x/floordiv_1/y"], "attr": {"T": {"type": "DT_INT32"}}}, {"name": "StatefulPartitionedCall/model_2/UpCunet2x/add_1", "op": "AddV2", "input": ["StatefulPartitionedCall/model_2/UpCunet2x/floordiv", "StatefulPartitionedCall/model_2/UpCunet2x/add_1/y"], "attr": {"T": {"type": "DT_INT32"}}}, {"name": "StatefulPartitionedCall/model_2/UpCunet2x/add_2", "op": "AddV2", "input": ["StatefulPartitionedCall/model_2/UpCunet2x/floordiv_1", "StatefulPartitionedCall/model_2/UpCunet2x/add_2/y"], "attr": {"T": {"type": "DT_INT32"}}}, {"name": "StatefulPartitionedCall/model_2/UpCunet2x/mul", "op": "Mul", "input": ["StatefulPartitionedCall/model_2/UpCunet2x/add_1", "StatefulPartitionedCall/model_2/UpCunet2x/mul/y"], "attr": {"T": {"type": "DT_INT32"}}}, {"name": "StatefulPartitionedCall/model_2/UpCunet2x/mul_1", "op": "Mul", "input": ["StatefulPartitionedCall/model_2/UpCunet2x/add_2", "StatefulPartitionedCall/model_2/UpCunet2x/mul_1/y"], "attr": {"T": {"type": "DT_INT32"}}}, {"name": "StatefulPartitionedCall/model_2/UpCunet2x/add_3", "op": "AddV2", "input": ["StatefulPartitionedCall/model_2/UpCunet2x/add_3/x", "StatefulPartitionedCall/model_2/UpCunet2x/mul"], "attr": {"T": {"type": "DT_INT32"}}}, {"name": "StatefulPartitionedCall/model_2/UpCunet2x/NotEqual_1", "op": "NotEqual", "input": ["StatefulPartitionedCall/model_2/UpCunet2x/strided_slice_1", "StatefulPartitionedCall/model_2/UpCunet2x/mul"], "attr": {"T": {"type": "DT_INT32"}, "incompatible_shape_error": {"b": true}}}, {"name": "StatefulPartitionedCall/model_2/UpCunet2x/add_4", "op": "AddV2", "input": ["StatefulPartitionedCall/model_2/UpCunet2x/add_4/x", "StatefulPartitionedCall/model_2/UpCunet2x/mul_1"], "attr": {"T": {"type": "DT_INT32"}}}, {"name": "StatefulPartitionedCall/model_2/UpCunet2x/NotEqual", "op": "NotEqual", "input": ["StatefulPartitionedCall/model_2/UpCunet2x/strided_slice_2", "StatefulPartitionedCall/model_2/UpCunet2x/mul_1"], "attr": {"T": {"type": "DT_INT32"}, "incompatible_shape_error": {"b": true}}}, {"name": "StatefulPartitionedCall/model_2/UpCunet2x/sub_2", "op": "Sub", "input": ["StatefulPartitionedCall/model_2/UpCunet2x/add_3", "StatefulPartitionedCall/model_2/UpCunet2x/strided_slice_1"], "attr": {"T": {"type": "DT_INT32"}}}, {"name": "StatefulPartitionedCall/model_2/UpCunet2x/sub_3", "op": "Sub", "input": ["StatefulPartitionedCall/model_2/UpCunet2x/add_4", "StatefulPartitionedCall/model_2/UpCunet2x/strided_slice_2"], "attr": {"T": {"type": "DT_INT32"}}}, {"name": "StatefulPartitionedCall/model_2/UpCunet2x/LogicalOr", "op": "LogicalOr", "input": ["StatefulPartitionedCall/model_2/UpCunet2x/NotEqual", "StatefulPartitionedCall/model_2/UpCunet2x/NotEqual_1"]}, {"name": "StatefulPartitionedCall/model_2/UpCunet2x/MirrorPad/paddings/1", "op": "Pack", "input": ["StatefulPartitionedCall/model_2/UpCunet2x/MirrorPad/paddings/1/0", "StatefulPartitionedCall/model_2/UpCunet2x/sub_2"], "attr": {"N": {"i": "2"}, "axis": {"i": "0"}, "T": {"type": "DT_INT32"}}}, {"name": "StatefulPartitionedCall/model_2/UpCunet2x/MirrorPad/paddings/2", "op": "Pack", "input": ["StatefulPartitionedCall/model_2/UpCunet2x/MirrorPad/paddings/2/0", "StatefulPartitionedCall/model_2/UpCunet2x/sub_3"], "attr": {"N": {"i": "2"}, "axis": {"i": "0"}, "T": {"type": "DT_INT32"}}}, {"name": "StatefulPartitionedCall/model_2/UpCunet2x/MirrorPad/paddings", "op": "Pack", "input": ["StatefulPartitionedCall/model_2/UpCunet2x/MirrorPad/paddings/0_1", "StatefulPartitionedCall/model_2/UpCunet2x/MirrorPad/paddings/1", "StatefulPartitionedCall/model_2/UpCunet2x/MirrorPad/paddings/2", "StatefulPartitionedCall/model_2/UpCunet2x/MirrorPad/paddings/3_1"], "attr": {"N": {"i": "4"}, "axis": {"i": "0"}, "T": {"type": "DT_INT32"}}}, {"name": "StatefulPartitionedCall/model_2/UpCunet2x/MirrorPad", "op": "MirrorPad", "input": ["StatefulPartitionedCall/model_2/UpCunet2x/add", "StatefulPartitionedCall/model_2/UpCunet2x/MirrorPad/paddings"], "attr": {"Tpaddings": {"type": "DT_INT32"}, "mode": {"s": "UkVGTEVDVA=="}, "T": {"type": "DT_FLOAT"}}}, {"name": "StatefulPartitionedCall/model_2/UpCunet2x/UpCunet2x.unet1/UpCunet2x.unet1.conv1/sequential_12/leaky_re_lu_40/LeakyRelu", "op": "_FusedConv2D", "input": ["StatefulPartitionedCall/model_2/UpCunet2x/MirrorPad", "StatefulPartitionedCall/model_2/UpCunet2x/UpCunet2x.unet1/UpCunet2x.unet1.conv1/sequential_12/UpCunet2x.unet1.conv1.conv.0/Conv2D/ReadVariableOp", "StatefulPartitionedCall/model_2/UpCunet2x/UpCunet2x.unet1/UpCunet2x.unet1.conv1/sequential_12/UpCunet2x.unet1.conv1.conv.0/BiasAdd/ReadVariableOp"], "device": "/device:CPU:0", "attr": {"num_host_args": {"i": "0"}, "data_format": {"s": "TkhXQw=="}, "filter_format": {"s": "SFdJTw=="}, "fused_ops": {"list": {"s": ["Qmlhc0FkZA==", "TGVha3lSZWx1"]}}, "num_args": {"i": "1"}, "strides": {"list": {"i": ["1", "1", "1", "1"]}}, "TArgs": {"list": {"type": ["DT_FLOAT"]}}, "padding": {"s": "VkFMSUQ="}, "use_cudnn_on_gpu": {"b": true}, "leakyrelu_alpha": {"f": 0.1}, "epsilon": {"f": 0.0}, "T": {"type": "DT_FLOAT"}, "explicit_paddings": {"list": {}}, "dilations": {"list": {"i": ["1", "1", "1", "1"]}}}}, {"name": "StatefulPartitionedCall/model_2/UpCunet2x/UpCunet2x.unet1/UpCunet2x.unet1.conv1/sequential_12/leaky_re_lu_41/LeakyRelu", "op": "_FusedConv2D", "input": ["StatefulPartitionedCall/model_2/UpCunet2x/UpCunet2x.unet1/UpCunet2x.unet1.conv1/sequential_12/leaky_re_lu_40/LeakyRelu", "StatefulPartitionedCall/model_2/UpCunet2x/UpCunet2x.unet1/UpCunet2x.unet1.conv1/sequential_12/UpCunet2x.unet1.conv1.conv.2/Conv2D/ReadVariableOp", "StatefulPartitionedCall/model_2/UpCunet2x/UpCunet2x.unet1/UpCunet2x.unet1.conv1/sequential_12/UpCunet2x.unet1.conv1.conv.2/BiasAdd/ReadVariableOp"], "device": "/device:CPU:0", "attr": {"num_host_args": {"i": "0"}, "data_format": {"s": "TkhXQw=="}, "filter_format": {"s": "SFdJTw=="}, "strides": {"list": {"i": ["1", "1", "1", "1"]}}, "num_args": {"i": "1"}, "fused_ops": {"list": {"s": ["Qmlhc0FkZA==", "TGVha3lSZWx1"]}}, "TArgs": {"list": {"type": ["DT_FLOAT"]}}, "padding": {"s": "VkFMSUQ="}, "use_cudnn_on_gpu": {"b": true}, "leakyrelu_alpha": {"f": 0.1}, "epsilon": {"f": 0.0}, "T": {"type": "DT_FLOAT"}, "explicit_paddings": {"list": {}}, "dilations": {"list": {"i": ["1", "1", "1", "1"]}}}}, {"name": "StatefulPartitionedCall/model_2/UpCunet2x/UpCunet2x.unet1/strided_slice", "op": "StridedSlice", "input": ["StatefulPartitionedCall/model_2/UpCunet2x/UpCunet2x.unet1/UpCunet2x.unet1.conv1/sequential_12/leaky_re_lu_41/LeakyRelu", "StatefulPartitionedCall/model_2/UpCunet2x/UpCunet2x.unet1/strided_slice/stack", "StatefulPartitionedCall/model_2/UpCunet2x/UpCunet2x.unet1/strided_slice/stack_1", "StatefulPartitionedCall/model_2/UpCunet2x/UpCunet2x.unet1/strided_slice/stack_2"], "attr": {"shrink_axis_mask": {"i": "0"}, "Index": {"type": "DT_INT32"}, "new_axis_mask": {"i": "0"}, "begin_mask": {"i": "9"}, "T": {"type": "DT_FLOAT"}, "end_mask": {"i": "9"}, "ellipsis_mask": {"i": "0"}}}, {"name": "StatefulPartitionedCall/model_2/UpCunet2x/UpCunet2x.unet1/leaky_re_lu/LeakyRelu", "op": "_FusedConv2D", "input": ["StatefulPartitionedCall/model_2/UpCunet2x/UpCunet2x.unet1/UpCunet2x.unet1.conv1/sequential_12/leaky_re_lu_41/LeakyRelu", "StatefulPartitionedCall/model_2/UpCunet2x/UpCunet2x.unet1/UpCunet2x.unet1.conv1_down/Conv2D/ReadVariableOp", "StatefulPartitionedCall/model_2/UpCunet2x/UpCunet2x.unet1/UpCunet2x.unet1.conv1_down/BiasAdd/ReadVariableOp"], "device": "/device:CPU:0", "attr": {"num_host_args": {"i": "0"}, "data_format": {"s": "TkhXQw=="}, "filter_format": {"s": "SFdJTw=="}, "fused_ops": {"list": {"s": ["Qmlhc0FkZA==", "TGVha3lSZWx1"]}}, "num_args": {"i": "1"}, "strides": {"list": {"i": ["1", "2", "2", "1"]}}, "TArgs": {"list": {"type": ["DT_FLOAT"]}}, "padding": {"s": "VkFMSUQ="}, "use_cudnn_on_gpu": {"b": true}, "leakyrelu_alpha": {"f": 0.1}, "epsilon": {"f": 0.0}, "T": {"type": "DT_FLOAT"}, "explicit_paddings": {"list": {}}, "dilations": {"list": {"i": ["1", "1", "1", "1"]}}}}, {"name": "StatefulPartitionedCall/model_2/UpCunet2x/UpCunet2x.unet1/unet.conv2/sequential_13/leaky_re_lu_42/LeakyRelu", "op": "_FusedConv2D", "input": ["StatefulPartitionedCall/model_2/UpCunet2x/UpCunet2x.unet1/leaky_re_lu/LeakyRelu", "StatefulPartitionedCall/model_2/UpCunet2x/UpCunet2x.unet1/unet.conv2/sequential_13/unet.conv2.conv.0/Conv2D/ReadVariableOp", "StatefulPartitionedCall/model_2/UpCunet2x/UpCunet2x.unet1/unet.conv2/sequential_13/unet.conv2.conv.0/BiasAdd/ReadVariableOp"], "device": "/device:CPU:0", "attr": {"num_host_args": {"i": "0"}, "data_format": {"s": "TkhXQw=="}, "filter_format": {"s": "SFdJTw=="}, "fused_ops": {"list": {"s": ["Qmlhc0FkZA==", "TGVha3lSZWx1"]}}, "num_args": {"i": "1"}, "strides": {"list": {"i": ["1", "1", "1", "1"]}}, "TArgs": {"list": {"type": ["DT_FLOAT"]}}, "padding": {"s": "VkFMSUQ="}, "use_cudnn_on_gpu": {"b": true}, "leakyrelu_alpha": {"f": 0.1}, "epsilon": {"f": 0.0}, "T": {"type": "DT_FLOAT"}, "explicit_paddings": {"list": {}}, "dilations": {"list": {"i": ["1", "1", "1", "1"]}}}}, {"name": "StatefulPartitionedCall/model_2/UpCunet2x/UpCunet2x.unet1/unet.conv2/sequential_13/leaky_re_lu_43/LeakyRelu", "op": "_FusedConv2D", "input": ["StatefulPartitionedCall/model_2/UpCunet2x/UpCunet2x.unet1/unet.conv2/sequential_13/leaky_re_lu_42/LeakyRelu", "StatefulPartitionedCall/model_2/UpCunet2x/UpCunet2x.unet1/unet.conv2/sequential_13/unet.conv2.conv.2/Conv2D/ReadVariableOp", "StatefulPartitionedCall/model_2/UpCunet2x/UpCunet2x.unet1/unet.conv2/sequential_13/unet.conv2.conv.2/BiasAdd/ReadVariableOp"], "device": "/device:CPU:0", "attr": {"num_host_args": {"i": "0"}, "data_format": {"s": "TkhXQw=="}, "filter_format": {"s": "SFdJTw=="}, "strides": {"list": {"i": ["1", "1", "1", "1"]}}, "num_args": {"i": "1"}, "fused_ops": {"list": {"s": ["Qmlhc0FkZA==", "TGVha3lSZWx1"]}}, "TArgs": {"list": {"type": ["DT_FLOAT"]}}, "padding": {"s": "VkFMSUQ="}, "use_cudnn_on_gpu": {"b": true}, "leakyrelu_alpha": {"f": 0.1}, "epsilon": {"f": 0.0}, "T": {"type": "DT_FLOAT"}, "explicit_paddings": {"list": {}}, "dilations": {"list": {"i": ["1", "1", "1", "1"]}}}}, {"name": "StatefulPartitionedCall/model_2/UpCunet2x/UpCunet2x.unet1/unet.conv2/unet.conv2.seblock/Mean", "op": "Mean", "input": ["StatefulPartitionedCall/model_2/UpCunet2x/UpCunet2x.unet1/unet.conv2/sequential_13/leaky_re_lu_43/LeakyRelu", "StatefulPartitionedCall/model_2/UpCunet2x/UpCunet2x.unet1/unet.conv2/unet.conv2.seblock/Mean/reduction_indices"], "attr": {"T": {"type": "DT_FLOAT"}, "Tidx": {"type": "DT_INT32"}, "keep_dims": {"b": true}}}, {"name": "StatefulPartitionedCall/model_2/UpCunet2x/UpCunet2x.unet1/unet.conv2/unet.conv2.seblock/re_lu/Relu", "op": "_FusedConv2D", "input": ["StatefulPartitionedCall/model_2/UpCunet2x/UpCunet2x.unet1/unet.conv2/unet.conv2.seblock/Mean", "StatefulPartitionedCall/model_2/UpCunet2x/UpCunet2x.unet1/unet.conv2/unet.conv2.seblock/unet.conv2.seblock.conv1/Conv2D/ReadVariableOp", "StatefulPartitionedCall/model_2/UpCunet2x/UpCunet2x.unet1/unet.conv2/unet.conv2.seblock/unet.conv2.seblock.conv1/BiasAdd/ReadVariableOp"], "device": "/device:CPU:0", "attr": {"num_host_args": {"i": "0"}, "data_format": {"s": "TkhXQw=="}, "filter_format": {"s": "SFdJTw=="}, "strides": {"list": {"i": ["1", "1", "1", "1"]}}, "num_args": {"i": "1"}, "fused_ops": {"list": {"s": ["Qmlhc0FkZA==", "UmVsdQ=="]}}, "TArgs": {"list": {"type": ["DT_FLOAT"]}}, "padding": {"s": "VkFMSUQ="}, "use_cudnn_on_gpu": {"b": true}, "leakyrelu_alpha": {"f": 0.2}, "epsilon": {"f": 0.0}, "T": {"type": "DT_FLOAT"}, "explicit_paddings": {"list": {}}, "dilations": {"list": {"i": ["1", "1", "1", "1"]}}}}, {"name": "StatefulPartitionedCall/model_2/UpCunet2x/UpCunet2x.unet1/unet.conv2/unet.conv2.seblock/unet.conv2.seblock.conv2/BiasAdd", "op": "_FusedConv2D", "input": ["StatefulPartitionedCall/model_2/UpCunet2x/UpCunet2x.unet1/unet.conv2/unet.conv2.seblock/re_lu/Relu", "StatefulPartitionedCall/model_2/UpCunet2x/UpCunet2x.unet1/unet.conv2/unet.conv2.seblock/unet.conv2.seblock.conv2/Conv2D/ReadVariableOp", "StatefulPartitionedCall/model_2/UpCunet2x/UpCunet2x.unet1/unet.conv2/unet.conv2.seblock/unet.conv2.seblock.conv2/BiasAdd/ReadVariableOp"], "device": "/device:CPU:0", "attr": {"num_host_args": {"i": "0"}, "data_format": {"s": "TkhXQw=="}, "filter_format": {"s": "SFdJTw=="}, "strides": {"list": {"i": ["1", "1", "1", "1"]}}, "num_args": {"i": "1"}, "fused_ops": {"list": {"s": ["Qmlhc0FkZA=="]}}, "TArgs": {"list": {"type": ["DT_FLOAT"]}}, "padding": {"s": "VkFMSUQ="}, "use_cudnn_on_gpu": {"b": true}, "leakyrelu_alpha": {"f": 0.2}, "epsilon": {"f": 0.0}, "T": {"type": "DT_FLOAT"}, "explicit_paddings": {"list": {}}, "dilations": {"list": {"i": ["1", "1", "1", "1"]}}}}, {"name": "StatefulPartitionedCall/model_2/UpCunet2x/UpCunet2x.unet1/unet.conv2/unet.conv2.seblock/Sigmoid", "op": "Sigmoid", "input": ["StatefulPartitionedCall/model_2/UpCunet2x/UpCunet2x.unet1/unet.conv2/unet.conv2.seblock/unet.conv2.seblock.conv2/BiasAdd"], "attr": {"T": {"type": "DT_FLOAT"}}}, {"name": "StatefulPartitionedCall/model_2/UpCunet2x/UpCunet2x.unet1/unet.conv2/unet.conv2.seblock/Mul", "op": "Mul", "input": ["StatefulPartitionedCall/model_2/UpCunet2x/UpCunet2x.unet1/unet.conv2/sequential_13/leaky_re_lu_43/LeakyRelu", "StatefulPartitionedCall/model_2/UpCunet2x/UpCunet2x.unet1/unet.conv2/unet.conv2.seblock/Sigmoid"], "attr": {"T": {"type": "DT_FLOAT"}}}, {"name": "StatefulPartitionedCall/model_2/UpCunet2x/UpCunet2x.unet1/UpCunet2x.unet1.conv2_up/Shape", "op": "Shape", "input": ["StatefulPartitionedCall/model_2/UpCunet2x/UpCunet2x.unet1/unet.conv2/unet.conv2.seblock/Mul"], "attr": {"T": {"type": "DT_FLOAT"}, "out_type": {"type": "DT_INT32"}}, "experimentalType": {"typeId": "TFT_PRODUCT", "args": [{"typeId": "TFT_SHAPE_TENSOR", "args": [{"typeId": "TFT_INT32"}]}]}}, {"name": "StatefulPartitionedCall/model_2/UpCunet2x/UpCunet2x.unet1/UpCunet2x.unet1.conv2_up/strided_slice", "op": "StridedSlice", "input": ["StatefulPartitionedCall/model_2/UpCunet2x/UpCunet2x.unet1/UpCunet2x.unet1.conv2_up/Shape", "StatefulPartitionedCall/model_2/UpCunet2x/UpCunet2x.unet1/UpCunet2x.unet1.conv2_up/strided_slice/stack", "StatefulPartitionedCall/model_2/UpCunet2x/UpCunet2x.unet1/UpCunet2x.unet1.conv2_up/strided_slice/stack_1", "StatefulPartitionedCall/model_2/UpCunet2x/UpCunet2x.unet1/UpCunet2x.unet1.conv2_up/strided_slice/stack_2"], "attr": {"shrink_axis_mask": {"i": "1"}, "Index": {"type": "DT_INT32"}, "new_axis_mask": {"i": "0"}, "begin_mask": {"i": "0"}, "end_mask": {"i": "0"}, "T": {"type": "DT_INT32"}, "ellipsis_mask": {"i": "0"}}}, {"name": "StatefulPartitionedCall/model_2/UpCunet2x/UpCunet2x.unet1/UpCunet2x.unet1.conv2_up/strided_slice_1", "op": "StridedSlice", "input": ["StatefulPartitionedCall/model_2/UpCunet2x/UpCunet2x.unet1/UpCunet2x.unet1.conv2_up/Shape", "StatefulPartitionedCall/model_2/UpCunet2x/UpCunet2x.unet1/UpCunet2x.unet1.conv2_up/strided_slice_1/stack", "StatefulPartitionedCall/model_2/UpCunet2x/UpCunet2x.unet1/UpCunet2x.unet1.conv2_up/strided_slice_1/stack_1", "StatefulPartitionedCall/model_2/UpCunet2x/UpCunet2x.unet1/UpCunet2x.unet1.conv2_up/strided_slice_1/stack_2"], "attr": {"shrink_axis_mask": {"i": "1"}, "Index": {"type": "DT_INT32"}, "new_axis_mask": {"i": "0"}, "begin_mask": {"i": "0"}, "T": {"type": "DT_INT32"}, "end_mask": {"i": "0"}, "ellipsis_mask": {"i": "0"}}}, {"name": "StatefulPartitionedCall/model_2/UpCunet2x/UpCunet2x.unet1/UpCunet2x.unet1.conv2_up/strided_slice_2", "op": "StridedSlice", "input": ["StatefulPartitionedCall/model_2/UpCunet2x/UpCunet2x.unet1/UpCunet2x.unet1.conv2_up/Shape", "StatefulPartitionedCall/model_2/UpCunet2x/UpCunet2x.unet1/UpCunet2x.unet1.conv2_up/strided_slice_2/stack", "StatefulPartitionedCall/model_2/UpCunet2x/UpCunet2x.unet1/UpCunet2x.unet1.conv2_up/strided_slice_2/stack_1", "StatefulPartitionedCall/model_2/UpCunet2x/UpCunet2x.unet1/UpCunet2x.unet1.conv2_up/strided_slice_2/stack_2"], "attr": {"shrink_axis_mask": {"i": "1"}, "new_axis_mask": {"i": "0"}, "Index": {"type": "DT_INT32"}, "begin_mask": {"i": "0"}, "T": {"type": "DT_INT32"}, "end_mask": {"i": "0"}, "ellipsis_mask": {"i": "0"}}}, {"name": "StatefulPartitionedCall/model_2/UpCunet2x/UpCunet2x.unet1/UpCunet2x.unet1.conv2_up/mul", "op": "Mul", "input": ["StatefulPartitionedCall/model_2/UpCunet2x/UpCunet2x.unet1/UpCunet2x.unet1.conv2_up/strided_slice_1", "StatefulPartitionedCall/model_2/UpCunet2x/UpCunet2x.unet1/UpCunet2x.unet1.conv2_up/mul/y"], "attr": {"T": {"type": "DT_INT32"}}}, {"name": "StatefulPartitionedCall/model_2/UpCunet2x/UpCunet2x.unet1/UpCunet2x.unet1.conv2_up/mul_1", "op": "Mul", "input": ["StatefulPartitionedCall/model_2/UpCunet2x/UpCunet2x.unet1/UpCunet2x.unet1.conv2_up/strided_slice_2", "StatefulPartitionedCall/model_2/UpCunet2x/UpCunet2x.unet1/UpCunet2x.unet1.conv2_up/mul_1/y"], "attr": {"T": {"type": "DT_INT32"}}}, {"name": "StatefulPartitionedCall/model_2/UpCunet2x/UpCunet2x.unet1/UpCunet2x.unet1.conv2_up/stack", "op": "Pack", "input": ["StatefulPartitionedCall/model_2/UpCunet2x/UpCunet2x.unet1/UpCunet2x.unet1.conv2_up/strided_slice", "StatefulPartitionedCall/model_2/UpCunet2x/UpCunet2x.unet1/UpCunet2x.unet1.conv2_up/mul", "StatefulPartitionedCall/model_2/UpCunet2x/UpCunet2x.unet1/UpCunet2x.unet1.conv2_up/mul_1", "StatefulPartitionedCall/model_2/UpCunet2x/UpCunet2x.unet1/UpCunet2x.unet1.conv2_up/stack/3"], "attr": {"N": {"i": "4"}, "axis": {"i": "0"}, "T": {"type": "DT_INT32"}}}, {"name": "StatefulPartitionedCall/model_2/UpCunet2x/UpCunet2x.unet1/UpCunet2x.unet1.conv2_up/conv2d_transpose", "op": "Conv2DBackpropInput", "input": ["StatefulPartitionedCall/model_2/UpCunet2x/UpCunet2x.unet1/UpCunet2x.unet1.conv2_up/stack", "StatefulPartitionedCall/model_2/UpCunet2x/UpCunet2x.unet1/UpCunet2x.unet1.conv2_up/conv2d_transpose/ReadVariableOp", "StatefulPartitionedCall/model_2/UpCunet2x/UpCunet2x.unet1/unet.conv2/unet.conv2.seblock/Mul"], "attr": {"padding": {"s": "VkFMSUQ="}, "data_format": {"s": "TkhXQw=="}, "strides": {"list": {"i": ["1", "2", "2", "1"]}}, "use_cudnn_on_gpu": {"b": true}, "T": {"type": "DT_FLOAT"}, "explicit_paddings": {"list": {}}, "dilations": {"list": {"i": ["1", "1", "1", "1"]}}}}, {"name": "StatefulPartitionedCall/model_2/UpCunet2x/UpCunet2x.unet1/UpCunet2x.unet1.conv2_up/BiasAdd", "op": "BiasAdd", "input": ["StatefulPartitionedCall/model_2/UpCunet2x/UpCunet2x.unet1/UpCunet2x.unet1.conv2_up/conv2d_transpose", "StatefulPartitionedCall/model_2/UpCunet2x/UpCunet2x.unet1/UpCunet2x.unet1.conv2_up/BiasAdd/ReadVariableOp"], "attr": {"data_format": {"s": "TkhXQw=="}, "T": {"type": "DT_FLOAT"}}}, {"name": "StatefulPartitionedCall/model_2/UpCunet2x/UpCunet2x.unet1/leaky_re_lu_1/LeakyRelu", "op": "LeakyRelu", "input": ["StatefulPartitionedCall/model_2/UpCunet2x/UpCunet2x.unet1/UpCunet2x.unet1.conv2_up/BiasAdd"], "attr": {"alpha": {"f": 0.1}, "T": {"type": "DT_FLOAT"}}}, {"name": "StatefulPartitionedCall/model_2/UpCunet2x/UpCunet2x.unet1/Add", "op": "AddV2", "input": ["StatefulPartitionedCall/model_2/UpCunet2x/UpCunet2x.unet1/strided_slice", "StatefulPartitionedCall/model_2/UpCunet2x/UpCunet2x.unet1/leaky_re_lu_1/LeakyRelu"], "attr": {"T": {"type": "DT_FLOAT"}}}, {"name": "StatefulPartitionedCall/model_2/UpCunet2x/UpCunet2x.unet1/leaky_re_lu_2/LeakyRelu", "op": "_FusedConv2D", "input": ["StatefulPartitionedCall/model_2/UpCunet2x/UpCunet2x.unet1/Add", "StatefulPartitionedCall/model_2/UpCunet2x/UpCunet2x.unet1/UpCunet2x.unet1.conv3/Conv2D/ReadVariableOp", "StatefulPartitionedCall/model_2/UpCunet2x/UpCunet2x.unet1/UpCunet2x.unet1.conv3/BiasAdd/ReadVariableOp"], "device": "/device:CPU:0", "attr": {"num_host_args": {"i": "0"}, "data_format": {"s": "TkhXQw=="}, "filter_format": {"s": "SFdJTw=="}, "fused_ops": {"list": {"s": ["Qmlhc0FkZA==", "TGVha3lSZWx1"]}}, "num_args": {"i": "1"}, "strides": {"list": {"i": ["1", "1", "1", "1"]}}, "TArgs": {"list": {"type": ["DT_FLOAT"]}}, "padding": {"s": "VkFMSUQ="}, "use_cudnn_on_gpu": {"b": true}, "leakyrelu_alpha": {"f": 0.1}, "epsilon": {"f": 0.0}, "T": {"type": "DT_FLOAT"}, "explicit_paddings": {"list": {}}, "dilations": {"list": {"i": ["1", "1", "1", "1"]}}}}, {"name": "StatefulPartitionedCall/model_2/UpCunet2x/UpCunet2x.unet1/UpCunet2x.unet1.conv_bottom/Shape", "op": "Shape", "input": ["StatefulPartitionedCall/model_2/UpCunet2x/UpCunet2x.unet1/leaky_re_lu_2/LeakyRelu"], "attr": {"T": {"type": "DT_FLOAT"}, "out_type": {"type": "DT_INT32"}}, "experimentalType": {"typeId": "TFT_PRODUCT", "args": [{"typeId": "TFT_SHAPE_TENSOR", "args": [{"typeId": "TFT_INT32"}]}]}}, {"name": "StatefulPartitionedCall/model_2/UpCunet2x/UpCunet2x.unet1/UpCunet2x.unet1.conv_bottom/strided_slice", "op": "StridedSlice", "input": ["StatefulPartitionedCall/model_2/UpCunet2x/UpCunet2x.unet1/UpCunet2x.unet1.conv_bottom/Shape", "StatefulPartitionedCall/model_2/UpCunet2x/UpCunet2x.unet1/UpCunet2x.unet1.conv_bottom/strided_slice/stack", "StatefulPartitionedCall/model_2/UpCunet2x/UpCunet2x.unet1/UpCunet2x.unet1.conv_bottom/strided_slice/stack_1", "StatefulPartitionedCall/model_2/UpCunet2x/UpCunet2x.unet1/UpCunet2x.unet1.conv_bottom/strided_slice/stack_2"], "attr": {"shrink_axis_mask": {"i": "1"}, "new_axis_mask": {"i": "0"}, "Index": {"type": "DT_INT32"}, "begin_mask": {"i": "0"}, "end_mask": {"i": "0"}, "T": {"type": "DT_INT32"}, "ellipsis_mask": {"i": "0"}}}, {"name": "StatefulPartitionedCall/model_2/UpCunet2x/UpCunet2x.unet1/UpCunet2x.unet1.conv_bottom/strided_slice_1", "op": "StridedSlice", "input": ["StatefulPartitionedCall/model_2/UpCunet2x/UpCunet2x.unet1/UpCunet2x.unet1.conv_bottom/Shape", "StatefulPartitionedCall/model_2/UpCunet2x/UpCunet2x.unet1/UpCunet2x.unet1.conv_bottom/strided_slice_1/stack", "StatefulPartitionedCall/model_2/UpCunet2x/UpCunet2x.unet1/UpCunet2x.unet1.conv_bottom/strided_slice_1/stack_1", "StatefulPartitionedCall/model_2/UpCunet2x/UpCunet2x.unet1/UpCunet2x.unet1.conv_bottom/strided_slice_1/stack_2"], "attr": {"shrink_axis_mask": {"i": "1"}, "new_axis_mask": {"i": "0"}, "Index": {"type": "DT_INT32"}, "begin_mask": {"i": "0"}, "end_mask": {"i": "0"}, "T": {"type": "DT_INT32"}, "ellipsis_mask": {"i": "0"}}}, {"name": "StatefulPartitionedCall/model_2/UpCunet2x/UpCunet2x.unet1/UpCunet2x.unet1.conv_bottom/strided_slice_2", "op": "StridedSlice", "input": ["StatefulPartitionedCall/model_2/UpCunet2x/UpCunet2x.unet1/UpCunet2x.unet1.conv_bottom/Shape", "StatefulPartitionedCall/model_2/UpCunet2x/UpCunet2x.unet1/UpCunet2x.unet1.conv_bottom/strided_slice_2/stack", "StatefulPartitionedCall/model_2/UpCunet2x/UpCunet2x.unet1/UpCunet2x.unet1.conv_bottom/strided_slice_2/stack_1", "StatefulPartitionedCall/model_2/UpCunet2x/UpCunet2x.unet1/UpCunet2x.unet1.conv_bottom/strided_slice_2/stack_2"], "attr": {"shrink_axis_mask": {"i": "1"}, "new_axis_mask": {"i": "0"}, "Index": {"type": "DT_INT32"}, "begin_mask": {"i": "0"}, "T": {"type": "DT_INT32"}, "end_mask": {"i": "0"}, "ellipsis_mask": {"i": "0"}}}, {"name": "StatefulPartitionedCall/model_2/UpCunet2x/UpCunet2x.unet1/UpCunet2x.unet1.conv_bottom/mul", "op": "Mul", "input": ["StatefulPartitionedCall/model_2/UpCunet2x/UpCunet2x.unet1/UpCunet2x.unet1.conv_bottom/strided_slice_1", "StatefulPartitionedCall/model_2/UpCunet2x/UpCunet2x.unet1/UpCunet2x.unet1.conv_bottom/mul/y"], "attr": {"T": {"type": "DT_INT32"}}}, {"name": "StatefulPartitionedCall/model_2/UpCunet2x/UpCunet2x.unet1/UpCunet2x.unet1.conv_bottom/mul_1", "op": "Mul", "input": ["StatefulPartitionedCall/model_2/UpCunet2x/UpCunet2x.unet1/UpCunet2x.unet1.conv_bottom/strided_slice_2", "StatefulPartitionedCall/model_2/UpCunet2x/UpCunet2x.unet1/UpCunet2x.unet1.conv_bottom/mul_1/y"], "attr": {"T": {"type": "DT_INT32"}}}, {"name": "StatefulPartitionedCall/model_2/UpCunet2x/UpCunet2x.unet1/UpCunet2x.unet1.conv_bottom/add", "op": "AddV2", "input": ["StatefulPartitionedCall/model_2/UpCunet2x/UpCunet2x.unet1/UpCunet2x.unet1.conv_bottom/mul", "StatefulPartitionedCall/model_2/UpCunet2x/UpCunet2x.unet1/UpCunet2x.unet1.conv_bottom/add/y"], "attr": {"T": {"type": "DT_INT32"}}}, {"name": "StatefulPartitionedCall/model_2/UpCunet2x/UpCunet2x.unet1/UpCunet2x.unet1.conv_bottom/add_1", "op": "AddV2", "input": ["StatefulPartitionedCall/model_2/UpCunet2x/UpCunet2x.unet1/UpCunet2x.unet1.conv_bottom/mul_1", "StatefulPartitionedCall/model_2/UpCunet2x/UpCunet2x.unet1/UpCunet2x.unet1.conv_bottom/add_1/y"], "attr": {"T": {"type": "DT_INT32"}}}, {"name": "StatefulPartitionedCall/model_2/UpCunet2x/UpCunet2x.unet1/UpCunet2x.unet1.conv_bottom/stack", "op": "Pack", "input": ["StatefulPartitionedCall/model_2/UpCunet2x/UpCunet2x.unet1/UpCunet2x.unet1.conv_bottom/strided_slice", "StatefulPartitionedCall/model_2/UpCunet2x/UpCunet2x.unet1/UpCunet2x.unet1.conv_bottom/add", "StatefulPartitionedCall/model_2/UpCunet2x/UpCunet2x.unet1/UpCunet2x.unet1.conv_bottom/add_1", "StatefulPartitionedCall/model_2/UpCunet2x/UpCunet2x.unet1/UpCunet2x.unet1.conv_bottom/stack/3"], "attr": {"N": {"i": "4"}, "axis": {"i": "0"}, "T": {"type": "DT_INT32"}}}, {"name": "StatefulPartitionedCall/model_2/UpCunet2x/UpCunet2x.unet1/UpCunet2x.unet1.conv_bottom/conv2d_transpose", "op": "Conv2DBackpropInput", "input": ["StatefulPartitionedCall/model_2/UpCunet2x/UpCunet2x.unet1/UpCunet2x.unet1.conv_bottom/stack", "StatefulPartitionedCall/model_2/UpCunet2x/UpCunet2x.unet1/UpCunet2x.unet1.conv_bottom/conv2d_transpose/ReadVariableOp", "StatefulPartitionedCall/model_2/UpCunet2x/UpCunet2x.unet1/leaky_re_lu_2/LeakyRelu"], "attr": {"padding": {"s": "VkFMSUQ="}, "data_format": {"s": "TkhXQw=="}, "strides": {"list": {"i": ["1", "2", "2", "1"]}}, "use_cudnn_on_gpu": {"b": true}, "T": {"type": "DT_FLOAT"}, "explicit_paddings": {"list": {}}, "dilations": {"list": {"i": ["1", "1", "1", "1"]}}}}, {"name": "StatefulPartitionedCall/model_2/UpCunet2x/UpCunet2x.unet1/UpCunet2x.unet1.conv_bottom/BiasAdd", "op": "BiasAdd", "input": ["StatefulPartitionedCall/model_2/UpCunet2x/UpCunet2x.unet1/UpCunet2x.unet1.conv_bottom/conv2d_transpose", "StatefulPartitionedCall/model_2/UpCunet2x/UpCunet2x.unet1/UpCunet2x.unet1.conv_bottom/BiasAdd/ReadVariableOp"], "attr": {"data_format": {"s": "TkhXQw=="}, "T": {"type": "DT_FLOAT"}}}, {"name": "StatefulPartitionedCall/model_2/UpCunet2x/UpCunet2x.unet1/strided_slice_1", "op": "StridedSlice", "input": ["StatefulPartitionedCall/model_2/UpCunet2x/UpCunet2x.unet1/UpCunet2x.unet1.conv_bottom/BiasAdd", "StatefulPartitionedCall/model_2/UpCunet2x/UpCunet2x.unet1/strided_slice_1/stack", "StatefulPartitionedCall/model_2/UpCunet2x/UpCunet2x.unet1/strided_slice_1/stack_1", "StatefulPartitionedCall/model_2/UpCunet2x/UpCunet2x.unet1/strided_slice_1/stack_2"], "attr": {"shrink_axis_mask": {"i": "0"}, "Index": {"type": "DT_INT32"}, "new_axis_mask": {"i": "0"}, "begin_mask": {"i": "9"}, "end_mask": {"i": "9"}, "T": {"type": "DT_FLOAT"}, "ellipsis_mask": {"i": "0"}}}, {"name": "StatefulPartitionedCall/model_2/UpCunet2x/strided_slice_4", "op": "StridedSlice", "input": ["StatefulPartitionedCall/model_2/UpCunet2x/UpCunet2x.unet1/strided_slice_1", "StatefulPartitionedCall/model_2/UpCunet2x/strided_slice_4/stack", "StatefulPartitionedCall/model_2/UpCunet2x/strided_slice_4/stack_1", "StatefulPartitionedCall/model_2/UpCunet2x/strided_slice_4/stack_2"], "attr": {"shrink_axis_mask": {"i": "0"}, "new_axis_mask": {"i": "0"}, "Index": {"type": "DT_INT32"}, "begin_mask": {"i": "9"}, "end_mask": {"i": "9"}, "T": {"type": "DT_FLOAT"}, "ellipsis_mask": {"i": "0"}}}, {"name": "StatefulPartitionedCall/model_2/UpCunet2x/UpCunet2x.unet2/UpCunet2x.unet2.conv1/sequential_14/leaky_re_lu_44/LeakyRelu", "op": "_FusedConv2D", "input": ["StatefulPartitionedCall/model_2/UpCunet2x/UpCunet2x.unet1/strided_slice_1", "StatefulPartitionedCall/model_2/UpCunet2x/UpCunet2x.unet2/UpCunet2x.unet2.conv1/sequential_14/UpCunet2x.unet2.conv1.conv.0/Conv2D/ReadVariableOp", "StatefulPartitionedCall/model_2/UpCunet2x/UpCunet2x.unet2/UpCunet2x.unet2.conv1/sequential_14/UpCunet2x.unet2.conv1.conv.0/BiasAdd/ReadVariableOp"], "device": "/device:CPU:0", "attr": {"num_host_args": {"i": "0"}, "data_format": {"s": "TkhXQw=="}, "filter_format": {"s": "SFdJTw=="}, "strides": {"list": {"i": ["1", "1", "1", "1"]}}, "num_args": {"i": "1"}, "fused_ops": {"list": {"s": ["Qmlhc0FkZA==", "TGVha3lSZWx1"]}}, "TArgs": {"list": {"type": ["DT_FLOAT"]}}, "padding": {"s": "VkFMSUQ="}, "use_cudnn_on_gpu": {"b": true}, "leakyrelu_alpha": {"f": 0.1}, "epsilon": {"f": 0.0}, "T": {"type": "DT_FLOAT"}, "explicit_paddings": {"list": {}}, "dilations": {"list": {"i": ["1", "1", "1", "1"]}}}}, {"name": "StatefulPartitionedCall/model_2/UpCunet2x/UpCunet2x.unet2/UpCunet2x.unet2.conv1/sequential_14/leaky_re_lu_45/LeakyRelu", "op": "_FusedConv2D", "input": ["StatefulPartitionedCall/model_2/UpCunet2x/UpCunet2x.unet2/UpCunet2x.unet2.conv1/sequential_14/leaky_re_lu_44/LeakyRelu", "StatefulPartitionedCall/model_2/UpCunet2x/UpCunet2x.unet2/UpCunet2x.unet2.conv1/sequential_14/UpCunet2x.unet2.conv1.conv.2/Conv2D/ReadVariableOp", "StatefulPartitionedCall/model_2/UpCunet2x/UpCunet2x.unet2/UpCunet2x.unet2.conv1/sequential_14/UpCunet2x.unet2.conv1.conv.2/BiasAdd/ReadVariableOp"], "device": "/device:CPU:0", "attr": {"num_host_args": {"i": "0"}, "data_format": {"s": "TkhXQw=="}, "filter_format": {"s": "SFdJTw=="}, "strides": {"list": {"i": ["1", "1", "1", "1"]}}, "num_args": {"i": "1"}, "fused_ops": {"list": {"s": ["Qmlhc0FkZA==", "TGVha3lSZWx1"]}}, "TArgs": {"list": {"type": ["DT_FLOAT"]}}, "padding": {"s": "VkFMSUQ="}, "use_cudnn_on_gpu": {"b": true}, "leakyrelu_alpha": {"f": 0.1}, "epsilon": {"f": 0.0}, "T": {"type": "DT_FLOAT"}, "explicit_paddings": {"list": {}}, "dilations": {"list": {"i": ["1", "1", "1", "1"]}}}}, {"name": "StatefulPartitionedCall/model_2/UpCunet2x/UpCunet2x.unet2/strided_slice", "op": "StridedSlice", "input": ["StatefulPartitionedCall/model_2/UpCunet2x/UpCunet2x.unet2/UpCunet2x.unet2.conv1/sequential_14/leaky_re_lu_45/LeakyRelu", "StatefulPartitionedCall/model_2/UpCunet2x/UpCunet2x.unet2/strided_slice/stack", "StatefulPartitionedCall/model_2/UpCunet2x/UpCunet2x.unet2/strided_slice/stack_1", "StatefulPartitionedCall/model_2/UpCunet2x/UpCunet2x.unet2/strided_slice/stack_2"], "attr": {"shrink_axis_mask": {"i": "0"}, "new_axis_mask": {"i": "0"}, "Index": {"type": "DT_INT32"}, "begin_mask": {"i": "9"}, "end_mask": {"i": "9"}, "T": {"type": "DT_FLOAT"}, "ellipsis_mask": {"i": "0"}}}, {"name": "StatefulPartitionedCall/model_2/UpCunet2x/UpCunet2x.unet2/leaky_re_lu_3/LeakyRelu", "op": "_FusedConv2D", "input": ["StatefulPartitionedCall/model_2/UpCunet2x/UpCunet2x.unet2/UpCunet2x.unet2.conv1/sequential_14/leaky_re_lu_45/LeakyRelu", "StatefulPartitionedCall/model_2/UpCunet2x/UpCunet2x.unet2/UpCunet2x.unet2.conv1_down/Conv2D/ReadVariableOp", "StatefulPartitionedCall/model_2/UpCunet2x/UpCunet2x.unet2/UpCunet2x.unet2.conv1_down/BiasAdd/ReadVariableOp"], "device": "/device:CPU:0", "attr": {"num_host_args": {"i": "0"}, "data_format": {"s": "TkhXQw=="}, "filter_format": {"s": "SFdJTw=="}, "fused_ops": {"list": {"s": ["Qmlhc0FkZA==", "TGVha3lSZWx1"]}}, "num_args": {"i": "1"}, "strides": {"list": {"i": ["1", "2", "2", "1"]}}, "TArgs": {"list": {"type": ["DT_FLOAT"]}}, "padding": {"s": "VkFMSUQ="}, "use_cudnn_on_gpu": {"b": true}, "leakyrelu_alpha": {"f": 0.1}, "epsilon": {"f": 0.0}, "T": {"type": "DT_FLOAT"}, "explicit_paddings": {"list": {}}, "dilations": {"list": {"i": ["1", "1", "1", "1"]}}}}, {"name": "StatefulPartitionedCall/model_2/UpCunet2x/UpCunet2x.unet2/UpCunet2x.unet2.conv2/sequential_15/leaky_re_lu_46/LeakyRelu", "op": "_FusedConv2D", "input": ["StatefulPartitionedCall/model_2/UpCunet2x/UpCunet2x.unet2/leaky_re_lu_3/LeakyRelu", "StatefulPartitionedCall/model_2/UpCunet2x/UpCunet2x.unet2/UpCunet2x.unet2.conv2/sequential_15/UpCunet2x.unet2.conv2.conv.0/Conv2D/ReadVariableOp", "StatefulPartitionedCall/model_2/UpCunet2x/UpCunet2x.unet2/UpCunet2x.unet2.conv2/sequential_15/UpCunet2x.unet2.conv2.conv.0/BiasAdd/ReadVariableOp"], "device": "/device:CPU:0", "attr": {"num_host_args": {"i": "0"}, "data_format": {"s": "TkhXQw=="}, "filter_format": {"s": "SFdJTw=="}, "fused_ops": {"list": {"s": ["Qmlhc0FkZA==", "TGVha3lSZWx1"]}}, "num_args": {"i": "1"}, "strides": {"list": {"i": ["1", "1", "1", "1"]}}, "TArgs": {"list": {"type": ["DT_FLOAT"]}}, "padding": {"s": "VkFMSUQ="}, "use_cudnn_on_gpu": {"b": true}, "leakyrelu_alpha": {"f": 0.1}, "epsilon": {"f": 0.0}, "T": {"type": "DT_FLOAT"}, "explicit_paddings": {"list": {}}, "dilations": {"list": {"i": ["1", "1", "1", "1"]}}}}, {"name": "StatefulPartitionedCall/model_2/UpCunet2x/UpCunet2x.unet2/UpCunet2x.unet2.conv2/sequential_15/leaky_re_lu_47/LeakyRelu", "op": "_FusedConv2D", "input": ["StatefulPartitionedCall/model_2/UpCunet2x/UpCunet2x.unet2/UpCunet2x.unet2.conv2/sequential_15/leaky_re_lu_46/LeakyRelu", "StatefulPartitionedCall/model_2/UpCunet2x/UpCunet2x.unet2/UpCunet2x.unet2.conv2/sequential_15/UpCunet2x.unet2.conv2.conv.2/Conv2D/ReadVariableOp", "StatefulPartitionedCall/model_2/UpCunet2x/UpCunet2x.unet2/UpCunet2x.unet2.conv2/sequential_15/UpCunet2x.unet2.conv2.conv.2/BiasAdd/ReadVariableOp"], "device": "/device:CPU:0", "attr": {"num_host_args": {"i": "0"}, "data_format": {"s": "TkhXQw=="}, "filter_format": {"s": "SFdJTw=="}, "fused_ops": {"list": {"s": ["Qmlhc0FkZA==", "TGVha3lSZWx1"]}}, "num_args": {"i": "1"}, "strides": {"list": {"i": ["1", "1", "1", "1"]}}, "TArgs": {"list": {"type": ["DT_FLOAT"]}}, "padding": {"s": "VkFMSUQ="}, "use_cudnn_on_gpu": {"b": true}, "leakyrelu_alpha": {"f": 0.1}, "epsilon": {"f": 0.0}, "T": {"type": "DT_FLOAT"}, "explicit_paddings": {"list": {}}, "dilations": {"list": {"i": ["1", "1", "1", "1"]}}}}, {"name": "StatefulPartitionedCall/model_2/UpCunet2x/UpCunet2x.unet2/UpCunet2x.unet2.conv2/UpCunet2x.unet2.conv2.seblock/Mean", "op": "Mean", "input": ["StatefulPartitionedCall/model_2/UpCunet2x/UpCunet2x.unet2/UpCunet2x.unet2.conv2/sequential_15/leaky_re_lu_47/LeakyRelu", "StatefulPartitionedCall/model_2/UpCunet2x/UpCunet2x.unet2/UpCunet2x.unet2.conv2/UpCunet2x.unet2.conv2.seblock/Mean/reduction_indices"], "attr": {"T": {"type": "DT_FLOAT"}, "Tidx": {"type": "DT_INT32"}, "keep_dims": {"b": true}}}, {"name": "StatefulPartitionedCall/model_2/UpCunet2x/UpCunet2x.unet2/UpCunet2x.unet2.conv2/UpCunet2x.unet2.conv2.seblock/re_lu_1/Relu", "op": "_FusedConv2D", "input": ["StatefulPartitionedCall/model_2/UpCunet2x/UpCunet2x.unet2/UpCunet2x.unet2.conv2/UpCunet2x.unet2.conv2.seblock/Mean", "StatefulPartitionedCall/model_2/UpCunet2x/UpCunet2x.unet2/UpCunet2x.unet2.conv2/UpCunet2x.unet2.conv2.seblock/UpCunet2x.unet2.conv2.seblock.conv1/Conv2D/ReadVariableOp", "StatefulPartitionedCall/model_2/UpCunet2x/UpCunet2x.unet2/UpCunet2x.unet2.conv2/UpCunet2x.unet2.conv2.seblock/UpCunet2x.unet2.conv2.seblock.conv1/BiasAdd/ReadVariableOp"], "device": "/device:CPU:0", "attr": {"num_host_args": {"i": "0"}, "data_format": {"s": "TkhXQw=="}, "filter_format": {"s": "SFdJTw=="}, "strides": {"list": {"i": ["1", "1", "1", "1"]}}, "num_args": {"i": "1"}, "fused_ops": {"list": {"s": ["Qmlhc0FkZA==", "UmVsdQ=="]}}, "TArgs": {"list": {"type": ["DT_FLOAT"]}}, "padding": {"s": "VkFMSUQ="}, "use_cudnn_on_gpu": {"b": true}, "leakyrelu_alpha": {"f": 0.2}, "epsilon": {"f": 0.0}, "T": {"type": "DT_FLOAT"}, "explicit_paddings": {"list": {}}, "dilations": {"list": {"i": ["1", "1", "1", "1"]}}}}, {"name": "StatefulPartitionedCall/model_2/UpCunet2x/UpCunet2x.unet2/UpCunet2x.unet2.conv2/UpCunet2x.unet2.conv2.seblock/UpCunet2x.unet2.conv2.seblock.conv2/BiasAdd", "op": "_FusedConv2D", "input": ["StatefulPartitionedCall/model_2/UpCunet2x/UpCunet2x.unet2/UpCunet2x.unet2.conv2/UpCunet2x.unet2.conv2.seblock/re_lu_1/Relu", "StatefulPartitionedCall/model_2/UpCunet2x/UpCunet2x.unet2/UpCunet2x.unet2.conv2/UpCunet2x.unet2.conv2.seblock/UpCunet2x.unet2.conv2.seblock.conv2/Conv2D/ReadVariableOp", "StatefulPartitionedCall/model_2/UpCunet2x/UpCunet2x.unet2/UpCunet2x.unet2.conv2/UpCunet2x.unet2.conv2.seblock/UpCunet2x.unet2.conv2.seblock.conv2/BiasAdd/ReadVariableOp"], "device": "/device:CPU:0", "attr": {"num_host_args": {"i": "0"}, "data_format": {"s": "TkhXQw=="}, "filter_format": {"s": "SFdJTw=="}, "strides": {"list": {"i": ["1", "1", "1", "1"]}}, "num_args": {"i": "1"}, "fused_ops": {"list": {"s": ["Qmlhc0FkZA=="]}}, "TArgs": {"list": {"type": ["DT_FLOAT"]}}, "padding": {"s": "VkFMSUQ="}, "use_cudnn_on_gpu": {"b": true}, "leakyrelu_alpha": {"f": 0.2}, "epsilon": {"f": 0.0}, "T": {"type": "DT_FLOAT"}, "explicit_paddings": {"list": {}}, "dilations": {"list": {"i": ["1", "1", "1", "1"]}}}}, {"name": "StatefulPartitionedCall/model_2/UpCunet2x/UpCunet2x.unet2/UpCunet2x.unet2.conv2/UpCunet2x.unet2.conv2.seblock/Sigmoid", "op": "Sigmoid", "input": ["StatefulPartitionedCall/model_2/UpCunet2x/UpCunet2x.unet2/UpCunet2x.unet2.conv2/UpCunet2x.unet2.conv2.seblock/UpCunet2x.unet2.conv2.seblock.conv2/BiasAdd"], "attr": {"T": {"type": "DT_FLOAT"}}}, {"name": "StatefulPartitionedCall/model_2/UpCunet2x/UpCunet2x.unet2/UpCunet2x.unet2.conv2/UpCunet2x.unet2.conv2.seblock/Mul", "op": "Mul", "input": ["StatefulPartitionedCall/model_2/UpCunet2x/UpCunet2x.unet2/UpCunet2x.unet2.conv2/sequential_15/leaky_re_lu_47/LeakyRelu", "StatefulPartitionedCall/model_2/UpCunet2x/UpCunet2x.unet2/UpCunet2x.unet2.conv2/UpCunet2x.unet2.conv2.seblock/Sigmoid"], "attr": {"T": {"type": "DT_FLOAT"}}}, {"name": "StatefulPartitionedCall/model_2/UpCunet2x/UpCunet2x.unet2/strided_slice_1", "op": "StridedSlice", "input": ["StatefulPartitionedCall/model_2/UpCunet2x/UpCunet2x.unet2/UpCunet2x.unet2.conv2/UpCunet2x.unet2.conv2.seblock/Mul", "StatefulPartitionedCall/model_2/UpCunet2x/UpCunet2x.unet2/strided_slice_1/stack", "StatefulPartitionedCall/model_2/UpCunet2x/UpCunet2x.unet2/strided_slice_1/stack_1", "StatefulPartitionedCall/model_2/UpCunet2x/UpCunet2x.unet2/strided_slice_1/stack_2"], "attr": {"shrink_axis_mask": {"i": "0"}, "new_axis_mask": {"i": "0"}, "Index": {"type": "DT_INT32"}, "begin_mask": {"i": "9"}, "T": {"type": "DT_FLOAT"}, "end_mask": {"i": "9"}, "ellipsis_mask": {"i": "0"}}}, {"name": "StatefulPartitionedCall/model_2/UpCunet2x/UpCunet2x.unet2/leaky_re_lu_4/LeakyRelu", "op": "_FusedConv2D", "input": ["StatefulPartitionedCall/model_2/UpCunet2x/UpCunet2x.unet2/UpCunet2x.unet2.conv2/UpCunet2x.unet2.conv2.seblock/Mul", "StatefulPartitionedCall/model_2/UpCunet2x/UpCunet2x.unet2/UpCunet2x.unet2.conv2_down/Conv2D/ReadVariableOp", "StatefulPartitionedCall/model_2/UpCunet2x/UpCunet2x.unet2/UpCunet2x.unet2.conv2_down/BiasAdd/ReadVariableOp"], "device": "/device:CPU:0", "attr": {"num_host_args": {"i": "0"}, "data_format": {"s": "TkhXQw=="}, "filter_format": {"s": "SFdJTw=="}, "strides": {"list": {"i": ["1", "2", "2", "1"]}}, "num_args": {"i": "1"}, "fused_ops": {"list": {"s": ["Qmlhc0FkZA==", "TGVha3lSZWx1"]}}, "TArgs": {"list": {"type": ["DT_FLOAT"]}}, "padding": {"s": "VkFMSUQ="}, "use_cudnn_on_gpu": {"b": true}, "leakyrelu_alpha": {"f": 0.1}, "epsilon": {"f": 0.0}, "T": {"type": "DT_FLOAT"}, "explicit_paddings": {"list": {}}, "dilations": {"list": {"i": ["1", "1", "1", "1"]}}}}, {"name": "StatefulPartitionedCall/model_2/UpCunet2x/UpCunet2x.unet2/UpCunet2x.unet2.conv3/sequential_16/leaky_re_lu_48/LeakyRelu", "op": "_FusedConv2D", "input": ["StatefulPartitionedCall/model_2/UpCunet2x/UpCunet2x.unet2/leaky_re_lu_4/LeakyRelu", "StatefulPartitionedCall/model_2/UpCunet2x/UpCunet2x.unet2/UpCunet2x.unet2.conv3/sequential_16/UpCunet2x.unet2.conv3.conv.0/Conv2D/ReadVariableOp", "StatefulPartitionedCall/model_2/UpCunet2x/UpCunet2x.unet2/UpCunet2x.unet2.conv3/sequential_16/UpCunet2x.unet2.conv3.conv.0/BiasAdd/ReadVariableOp"], "device": "/device:CPU:0", "attr": {"num_host_args": {"i": "0"}, "data_format": {"s": "TkhXQw=="}, "filter_format": {"s": "SFdJTw=="}, "fused_ops": {"list": {"s": ["Qmlhc0FkZA==", "TGVha3lSZWx1"]}}, "num_args": {"i": "1"}, "strides": {"list": {"i": ["1", "1", "1", "1"]}}, "TArgs": {"list": {"type": ["DT_FLOAT"]}}, "padding": {"s": "VkFMSUQ="}, "use_cudnn_on_gpu": {"b": true}, "leakyrelu_alpha": {"f": 0.1}, "epsilon": {"f": 0.0}, "T": {"type": "DT_FLOAT"}, "explicit_paddings": {"list": {}}, "dilations": {"list": {"i": ["1", "1", "1", "1"]}}}}, {"name": "StatefulPartitionedCall/model_2/UpCunet2x/UpCunet2x.unet2/UpCunet2x.unet2.conv3/sequential_16/leaky_re_lu_49/LeakyRelu", "op": "_FusedConv2D", "input": ["StatefulPartitionedCall/model_2/UpCunet2x/UpCunet2x.unet2/UpCunet2x.unet2.conv3/sequential_16/leaky_re_lu_48/LeakyRelu", "StatefulPartitionedCall/model_2/UpCunet2x/UpCunet2x.unet2/UpCunet2x.unet2.conv3/sequential_16/UpCunet2x.unet2.conv3.conv.2/Conv2D/ReadVariableOp", "StatefulPartitionedCall/model_2/UpCunet2x/UpCunet2x.unet2/UpCunet2x.unet2.conv3/sequential_16/UpCunet2x.unet2.conv3.conv.2/BiasAdd/ReadVariableOp"], "device": "/device:CPU:0", "attr": {"num_host_args": {"i": "0"}, "data_format": {"s": "TkhXQw=="}, "filter_format": {"s": "SFdJTw=="}, "fused_ops": {"list": {"s": ["Qmlhc0FkZA==", "TGVha3lSZWx1"]}}, "num_args": {"i": "1"}, "strides": {"list": {"i": ["1", "1", "1", "1"]}}, "TArgs": {"list": {"type": ["DT_FLOAT"]}}, "padding": {"s": "VkFMSUQ="}, "use_cudnn_on_gpu": {"b": true}, "leakyrelu_alpha": {"f": 0.1}, "epsilon": {"f": 0.0}, "T": {"type": "DT_FLOAT"}, "explicit_paddings": {"list": {}}, "dilations": {"list": {"i": ["1", "1", "1", "1"]}}}}, {"name": "StatefulPartitionedCall/model_2/UpCunet2x/UpCunet2x.unet2/UpCunet2x.unet2.conv3/UpCunet2x.unet2.conv3.seblock/Mean", "op": "Mean", "input": ["StatefulPartitionedCall/model_2/UpCunet2x/UpCunet2x.unet2/UpCunet2x.unet2.conv3/sequential_16/leaky_re_lu_49/LeakyRelu", "StatefulPartitionedCall/model_2/UpCunet2x/UpCunet2x.unet2/UpCunet2x.unet2.conv3/UpCunet2x.unet2.conv3.seblock/Mean/reduction_indices"], "attr": {"Tidx": {"type": "DT_INT32"}, "T": {"type": "DT_FLOAT"}, "keep_dims": {"b": true}}}, {"name": "StatefulPartitionedCall/model_2/UpCunet2x/UpCunet2x.unet2/UpCunet2x.unet2.conv3/UpCunet2x.unet2.conv3.seblock/re_lu_2/Relu", "op": "_FusedConv2D", "input": ["StatefulPartitionedCall/model_2/UpCunet2x/UpCunet2x.unet2/UpCunet2x.unet2.conv3/UpCunet2x.unet2.conv3.seblock/Mean", "StatefulPartitionedCall/model_2/UpCunet2x/UpCunet2x.unet2/UpCunet2x.unet2.conv3/UpCunet2x.unet2.conv3.seblock/UpCunet2x.unet2.conv3.seblock.conv1/Conv2D/ReadVariableOp", "StatefulPartitionedCall/model_2/UpCunet2x/UpCunet2x.unet2/UpCunet2x.unet2.conv3/UpCunet2x.unet2.conv3.seblock/UpCunet2x.unet2.conv3.seblock.conv1/BiasAdd/ReadVariableOp"], "device": "/device:CPU:0", "attr": {"num_host_args": {"i": "0"}, "data_format": {"s": "TkhXQw=="}, "filter_format": {"s": "SFdJTw=="}, "strides": {"list": {"i": ["1", "1", "1", "1"]}}, "num_args": {"i": "1"}, "fused_ops": {"list": {"s": ["Qmlhc0FkZA==", "UmVsdQ=="]}}, "TArgs": {"list": {"type": ["DT_FLOAT"]}}, "padding": {"s": "VkFMSUQ="}, "use_cudnn_on_gpu": {"b": true}, "leakyrelu_alpha": {"f": 0.2}, "epsilon": {"f": 0.0}, "T": {"type": "DT_FLOAT"}, "explicit_paddings": {"list": {}}, "dilations": {"list": {"i": ["1", "1", "1", "1"]}}}}, {"name": "StatefulPartitionedCall/model_2/UpCunet2x/UpCunet2x.unet2/UpCunet2x.unet2.conv3/UpCunet2x.unet2.conv3.seblock/UpCunet2x.unet2.conv3.seblock.conv2/BiasAdd", "op": "_FusedConv2D", "input": ["StatefulPartitionedCall/model_2/UpCunet2x/UpCunet2x.unet2/UpCunet2x.unet2.conv3/UpCunet2x.unet2.conv3.seblock/re_lu_2/Relu", "StatefulPartitionedCall/model_2/UpCunet2x/UpCunet2x.unet2/UpCunet2x.unet2.conv3/UpCunet2x.unet2.conv3.seblock/UpCunet2x.unet2.conv3.seblock.conv2/Conv2D/ReadVariableOp", "StatefulPartitionedCall/model_2/UpCunet2x/UpCunet2x.unet2/UpCunet2x.unet2.conv3/UpCunet2x.unet2.conv3.seblock/UpCunet2x.unet2.conv3.seblock.conv2/BiasAdd/ReadVariableOp"], "device": "/device:CPU:0", "attr": {"num_host_args": {"i": "0"}, "data_format": {"s": "TkhXQw=="}, "filter_format": {"s": "SFdJTw=="}, "strides": {"list": {"i": ["1", "1", "1", "1"]}}, "num_args": {"i": "1"}, "fused_ops": {"list": {"s": ["Qmlhc0FkZA=="]}}, "TArgs": {"list": {"type": ["DT_FLOAT"]}}, "padding": {"s": "VkFMSUQ="}, "use_cudnn_on_gpu": {"b": true}, "leakyrelu_alpha": {"f": 0.2}, "epsilon": {"f": 0.0}, "T": {"type": "DT_FLOAT"}, "explicit_paddings": {"list": {}}, "dilations": {"list": {"i": ["1", "1", "1", "1"]}}}}, {"name": "StatefulPartitionedCall/model_2/UpCunet2x/UpCunet2x.unet2/UpCunet2x.unet2.conv3/UpCunet2x.unet2.conv3.seblock/Sigmoid", "op": "Sigmoid", "input": ["StatefulPartitionedCall/model_2/UpCunet2x/UpCunet2x.unet2/UpCunet2x.unet2.conv3/UpCunet2x.unet2.conv3.seblock/UpCunet2x.unet2.conv3.seblock.conv2/BiasAdd"], "attr": {"T": {"type": "DT_FLOAT"}}}, {"name": "StatefulPartitionedCall/model_2/UpCunet2x/UpCunet2x.unet2/UpCunet2x.unet2.conv3/UpCunet2x.unet2.conv3.seblock/Mul", "op": "Mul", "input": ["StatefulPartitionedCall/model_2/UpCunet2x/UpCunet2x.unet2/UpCunet2x.unet2.conv3/sequential_16/leaky_re_lu_49/LeakyRelu", "StatefulPartitionedCall/model_2/UpCunet2x/UpCunet2x.unet2/UpCunet2x.unet2.conv3/UpCunet2x.unet2.conv3.seblock/Sigmoid"], "attr": {"T": {"type": "DT_FLOAT"}}}, {"name": "StatefulPartitionedCall/model_2/UpCunet2x/UpCunet2x.unet2/UpCunet2x.unet2.conv3_up/Shape", "op": "Shape", "input": ["StatefulPartitionedCall/model_2/UpCunet2x/UpCunet2x.unet2/UpCunet2x.unet2.conv3/UpCunet2x.unet2.conv3.seblock/Mul"], "attr": {"T": {"type": "DT_FLOAT"}, "out_type": {"type": "DT_INT32"}}, "experimentalType": {"typeId": "TFT_PRODUCT", "args": [{"typeId": "TFT_SHAPE_TENSOR", "args": [{"typeId": "TFT_INT32"}]}]}}, {"name": "StatefulPartitionedCall/model_2/UpCunet2x/UpCunet2x.unet2/UpCunet2x.unet2.conv3_up/strided_slice_2", "op": "StridedSlice", "input": ["StatefulPartitionedCall/model_2/UpCunet2x/UpCunet2x.unet2/UpCunet2x.unet2.conv3_up/Shape", "StatefulPartitionedCall/model_2/UpCunet2x/UpCunet2x.unet2/UpCunet2x.unet2.conv3_up/strided_slice_2/stack", "StatefulPartitionedCall/model_2/UpCunet2x/UpCunet2x.unet2/UpCunet2x.unet2.conv3_up/strided_slice_2/stack_1", "StatefulPartitionedCall/model_2/UpCunet2x/UpCunet2x.unet2/UpCunet2x.unet2.conv3_up/strided_slice_2/stack_2"], "attr": {"shrink_axis_mask": {"i": "1"}, "Index": {"type": "DT_INT32"}, "new_axis_mask": {"i": "0"}, "begin_mask": {"i": "0"}, "T": {"type": "DT_INT32"}, "end_mask": {"i": "0"}, "ellipsis_mask": {"i": "0"}}}, {"name": "StatefulPartitionedCall/model_2/UpCunet2x/UpCunet2x.unet2/UpCunet2x.unet2.conv3_up/strided_slice", "op": "StridedSlice", "input": ["StatefulPartitionedCall/model_2/UpCunet2x/UpCunet2x.unet2/UpCunet2x.unet2.conv3_up/Shape", "StatefulPartitionedCall/model_2/UpCunet2x/UpCunet2x.unet2/UpCunet2x.unet2.conv3_up/strided_slice/stack", "StatefulPartitionedCall/model_2/UpCunet2x/UpCunet2x.unet2/UpCunet2x.unet2.conv3_up/strided_slice/stack_1", "StatefulPartitionedCall/model_2/UpCunet2x/UpCunet2x.unet2/UpCunet2x.unet2.conv3_up/strided_slice/stack_2"], "attr": {"shrink_axis_mask": {"i": "1"}, "new_axis_mask": {"i": "0"}, "Index": {"type": "DT_INT32"}, "begin_mask": {"i": "0"}, "end_mask": {"i": "0"}, "T": {"type": "DT_INT32"}, "ellipsis_mask": {"i": "0"}}}, {"name": "StatefulPartitionedCall/model_2/UpCunet2x/UpCunet2x.unet2/UpCunet2x.unet2.conv3_up/strided_slice_1", "op": "StridedSlice", "input": ["StatefulPartitionedCall/model_2/UpCunet2x/UpCunet2x.unet2/UpCunet2x.unet2.conv3_up/Shape", "StatefulPartitionedCall/model_2/UpCunet2x/UpCunet2x.unet2/UpCunet2x.unet2.conv3_up/strided_slice_1/stack", "StatefulPartitionedCall/model_2/UpCunet2x/UpCunet2x.unet2/UpCunet2x.unet2.conv3_up/strided_slice_1/stack_1", "StatefulPartitionedCall/model_2/UpCunet2x/UpCunet2x.unet2/UpCunet2x.unet2.conv3_up/strided_slice_1/stack_2"], "attr": {"shrink_axis_mask": {"i": "1"}, "Index": {"type": "DT_INT32"}, "new_axis_mask": {"i": "0"}, "begin_mask": {"i": "0"}, "end_mask": {"i": "0"}, "T": {"type": "DT_INT32"}, "ellipsis_mask": {"i": "0"}}}, {"name": "StatefulPartitionedCall/model_2/UpCunet2x/UpCunet2x.unet2/UpCunet2x.unet2.conv3_up/mul_1", "op": "Mul", "input": ["StatefulPartitionedCall/model_2/UpCunet2x/UpCunet2x.unet2/UpCunet2x.unet2.conv3_up/strided_slice_2", "StatefulPartitionedCall/model_2/UpCunet2x/UpCunet2x.unet2/UpCunet2x.unet2.conv3_up/mul_1/y"], "attr": {"T": {"type": "DT_INT32"}}}, {"name": "StatefulPartitionedCall/model_2/UpCunet2x/UpCunet2x.unet2/UpCunet2x.unet2.conv3_up/mul", "op": "Mul", "input": ["StatefulPartitionedCall/model_2/UpCunet2x/UpCunet2x.unet2/UpCunet2x.unet2.conv3_up/strided_slice_1", "StatefulPartitionedCall/model_2/UpCunet2x/UpCunet2x.unet2/UpCunet2x.unet2.conv3_up/mul/y"], "attr": {"T": {"type": "DT_INT32"}}}, {"name": "StatefulPartitionedCall/model_2/UpCunet2x/UpCunet2x.unet2/UpCunet2x.unet2.conv3_up/stack", "op": "Pack", "input": ["StatefulPartitionedCall/model_2/UpCunet2x/UpCunet2x.unet2/UpCunet2x.unet2.conv3_up/strided_slice", "StatefulPartitionedCall/model_2/UpCunet2x/UpCunet2x.unet2/UpCunet2x.unet2.conv3_up/mul", "StatefulPartitionedCall/model_2/UpCunet2x/UpCunet2x.unet2/UpCunet2x.unet2.conv3_up/mul_1", "StatefulPartitionedCall/model_2/UpCunet2x/UpCunet2x.unet2/UpCunet2x.unet2.conv3_up/stack/3"], "attr": {"N": {"i": "4"}, "axis": {"i": "0"}, "T": {"type": "DT_INT32"}}}, {"name": "StatefulPartitionedCall/model_2/UpCunet2x/UpCunet2x.unet2/UpCunet2x.unet2.conv3_up/conv2d_transpose", "op": "Conv2DBackpropInput", "input": ["StatefulPartitionedCall/model_2/UpCunet2x/UpCunet2x.unet2/UpCunet2x.unet2.conv3_up/stack", "StatefulPartitionedCall/model_2/UpCunet2x/UpCunet2x.unet2/UpCunet2x.unet2.conv3_up/conv2d_transpose/ReadVariableOp", "StatefulPartitionedCall/model_2/UpCunet2x/UpCunet2x.unet2/UpCunet2x.unet2.conv3/UpCunet2x.unet2.conv3.seblock/Mul"], "attr": {"padding": {"s": "VkFMSUQ="}, "data_format": {"s": "TkhXQw=="}, "use_cudnn_on_gpu": {"b": true}, "strides": {"list": {"i": ["1", "2", "2", "1"]}}, "T": {"type": "DT_FLOAT"}, "explicit_paddings": {"list": {}}, "dilations": {"list": {"i": ["1", "1", "1", "1"]}}}}, {"name": "StatefulPartitionedCall/model_2/UpCunet2x/UpCunet2x.unet2/UpCunet2x.unet2.conv3_up/BiasAdd", "op": "BiasAdd", "input": ["StatefulPartitionedCall/model_2/UpCunet2x/UpCunet2x.unet2/UpCunet2x.unet2.conv3_up/conv2d_transpose", "StatefulPartitionedCall/model_2/UpCunet2x/UpCunet2x.unet2/UpCunet2x.unet2.conv3_up/BiasAdd/ReadVariableOp"], "attr": {"data_format": {"s": "TkhXQw=="}, "T": {"type": "DT_FLOAT"}}}, {"name": "StatefulPartitionedCall/model_2/UpCunet2x/UpCunet2x.unet2/leaky_re_lu_5/LeakyRelu", "op": "LeakyRelu", "input": ["StatefulPartitionedCall/model_2/UpCunet2x/UpCunet2x.unet2/UpCunet2x.unet2.conv3_up/BiasAdd"], "attr": {"alpha": {"f": 0.1}, "T": {"type": "DT_FLOAT"}}}, {"name": "StatefulPartitionedCall/model_2/UpCunet2x/UpCunet2x.unet2/Add", "op": "AddV2", "input": ["StatefulPartitionedCall/model_2/UpCunet2x/UpCunet2x.unet2/strided_slice_1", "StatefulPartitionedCall/model_2/UpCunet2x/UpCunet2x.unet2/leaky_re_lu_5/LeakyRelu"], "attr": {"T": {"type": "DT_FLOAT"}}}, {"name": "StatefulPartitionedCall/model_2/UpCunet2x/UpCunet2x.unet2/UpCunet2x.unet2.conv4/sequential_17/leaky_re_lu_50/LeakyRelu", "op": "_FusedConv2D", "input": ["StatefulPartitionedCall/model_2/UpCunet2x/UpCunet2x.unet2/Add", "StatefulPartitionedCall/model_2/UpCunet2x/UpCunet2x.unet2/UpCunet2x.unet2.conv4/sequential_17/UpCunet2x.unet2.conv4.conv.0/Conv2D/ReadVariableOp", "StatefulPartitionedCall/model_2/UpCunet2x/UpCunet2x.unet2/UpCunet2x.unet2.conv4/sequential_17/UpCunet2x.unet2.conv4.conv.0/BiasAdd/ReadVariableOp"], "device": "/device:CPU:0", "attr": {"num_host_args": {"i": "0"}, "data_format": {"s": "TkhXQw=="}, "filter_format": {"s": "SFdJTw=="}, "strides": {"list": {"i": ["1", "1", "1", "1"]}}, "num_args": {"i": "1"}, "fused_ops": {"list": {"s": ["Qmlhc0FkZA==", "TGVha3lSZWx1"]}}, "TArgs": {"list": {"type": ["DT_FLOAT"]}}, "padding": {"s": "VkFMSUQ="}, "use_cudnn_on_gpu": {"b": true}, "leakyrelu_alpha": {"f": 0.1}, "epsilon": {"f": 0.0}, "T": {"type": "DT_FLOAT"}, "explicit_paddings": {"list": {}}, "dilations": {"list": {"i": ["1", "1", "1", "1"]}}}}, {"name": "StatefulPartitionedCall/model_2/UpCunet2x/UpCunet2x.unet2/UpCunet2x.unet2.conv4/sequential_17/leaky_re_lu_51/LeakyRelu", "op": "_FusedConv2D", "input": ["StatefulPartitionedCall/model_2/UpCunet2x/UpCunet2x.unet2/UpCunet2x.unet2.conv4/sequential_17/leaky_re_lu_50/LeakyRelu", "StatefulPartitionedCall/model_2/UpCunet2x/UpCunet2x.unet2/UpCunet2x.unet2.conv4/sequential_17/UpCunet2x.unet2.conv4.conv.2/Conv2D/ReadVariableOp", "StatefulPartitionedCall/model_2/UpCunet2x/UpCunet2x.unet2/UpCunet2x.unet2.conv4/sequential_17/UpCunet2x.unet2.conv4.conv.2/BiasAdd/ReadVariableOp"], "device": "/device:CPU:0", "attr": {"num_host_args": {"i": "0"}, "data_format": {"s": "TkhXQw=="}, "filter_format": {"s": "SFdJTw=="}, "fused_ops": {"list": {"s": ["Qmlhc0FkZA==", "TGVha3lSZWx1"]}}, "num_args": {"i": "1"}, "strides": {"list": {"i": ["1", "1", "1", "1"]}}, "TArgs": {"list": {"type": ["DT_FLOAT"]}}, "padding": {"s": "VkFMSUQ="}, "use_cudnn_on_gpu": {"b": true}, "leakyrelu_alpha": {"f": 0.1}, "epsilon": {"f": 0.0}, "T": {"type": "DT_FLOAT"}, "explicit_paddings": {"list": {}}, "dilations": {"list": {"i": ["1", "1", "1", "1"]}}}}, {"name": "StatefulPartitionedCall/model_2/UpCunet2x/UpCunet2x.unet2/UpCunet2x.unet2.conv4/UpCunet2x.unet2.conv4.seblock/Mean", "op": "Mean", "input": ["StatefulPartitionedCall/model_2/UpCunet2x/UpCunet2x.unet2/UpCunet2x.unet2.conv4/sequential_17/leaky_re_lu_51/LeakyRelu", "StatefulPartitionedCall/model_2/UpCunet2x/UpCunet2x.unet2/UpCunet2x.unet2.conv4/UpCunet2x.unet2.conv4.seblock/Mean/reduction_indices"], "attr": {"Tidx": {"type": "DT_INT32"}, "T": {"type": "DT_FLOAT"}, "keep_dims": {"b": true}}}, {"name": "StatefulPartitionedCall/model_2/UpCunet2x/UpCunet2x.unet2/UpCunet2x.unet2.conv4/UpCunet2x.unet2.conv4.seblock/re_lu_3/Relu", "op": "_FusedConv2D", "input": ["StatefulPartitionedCall/model_2/UpCunet2x/UpCunet2x.unet2/UpCunet2x.unet2.conv4/UpCunet2x.unet2.conv4.seblock/Mean", "StatefulPartitionedCall/model_2/UpCunet2x/UpCunet2x.unet2/UpCunet2x.unet2.conv4/UpCunet2x.unet2.conv4.seblock/UpCunet2x.unet2.conv4.seblock.conv1/Conv2D/ReadVariableOp", "StatefulPartitionedCall/model_2/UpCunet2x/UpCunet2x.unet2/UpCunet2x.unet2.conv4/UpCunet2x.unet2.conv4.seblock/UpCunet2x.unet2.conv4.seblock.conv1/BiasAdd/ReadVariableOp"], "device": "/device:CPU:0", "attr": {"num_host_args": {"i": "0"}, "data_format": {"s": "TkhXQw=="}, "filter_format": {"s": "SFdJTw=="}, "fused_ops": {"list": {"s": ["Qmlhc0FkZA==", "UmVsdQ=="]}}, "num_args": {"i": "1"}, "strides": {"list": {"i": ["1", "1", "1", "1"]}}, "TArgs": {"list": {"type": ["DT_FLOAT"]}}, "padding": {"s": "VkFMSUQ="}, "use_cudnn_on_gpu": {"b": true}, "leakyrelu_alpha": {"f": 0.2}, "epsilon": {"f": 0.0}, "T": {"type": "DT_FLOAT"}, "explicit_paddings": {"list": {}}, "dilations": {"list": {"i": ["1", "1", "1", "1"]}}}}, {"name": "StatefulPartitionedCall/model_2/UpCunet2x/UpCunet2x.unet2/UpCunet2x.unet2.conv4/UpCunet2x.unet2.conv4.seblock/UpCunet2x.unet2.conv4.seblock.conv2/BiasAdd", "op": "_FusedConv2D", "input": ["StatefulPartitionedCall/model_2/UpCunet2x/UpCunet2x.unet2/UpCunet2x.unet2.conv4/UpCunet2x.unet2.conv4.seblock/re_lu_3/Relu", "StatefulPartitionedCall/model_2/UpCunet2x/UpCunet2x.unet2/UpCunet2x.unet2.conv4/UpCunet2x.unet2.conv4.seblock/UpCunet2x.unet2.conv4.seblock.conv2/Conv2D/ReadVariableOp", "StatefulPartitionedCall/model_2/UpCunet2x/UpCunet2x.unet2/UpCunet2x.unet2.conv4/UpCunet2x.unet2.conv4.seblock/UpCunet2x.unet2.conv4.seblock.conv2/BiasAdd/ReadVariableOp"], "device": "/device:CPU:0", "attr": {"num_host_args": {"i": "0"}, "data_format": {"s": "TkhXQw=="}, "filter_format": {"s": "SFdJTw=="}, "fused_ops": {"list": {"s": ["Qmlhc0FkZA=="]}}, "num_args": {"i": "1"}, "strides": {"list": {"i": ["1", "1", "1", "1"]}}, "TArgs": {"list": {"type": ["DT_FLOAT"]}}, "padding": {"s": "VkFMSUQ="}, "use_cudnn_on_gpu": {"b": true}, "leakyrelu_alpha": {"f": 0.2}, "epsilon": {"f": 0.0}, "T": {"type": "DT_FLOAT"}, "explicit_paddings": {"list": {}}, "dilations": {"list": {"i": ["1", "1", "1", "1"]}}}}, {"name": "StatefulPartitionedCall/model_2/UpCunet2x/UpCunet2x.unet2/UpCunet2x.unet2.conv4/UpCunet2x.unet2.conv4.seblock/Sigmoid", "op": "Sigmoid", "input": ["StatefulPartitionedCall/model_2/UpCunet2x/UpCunet2x.unet2/UpCunet2x.unet2.conv4/UpCunet2x.unet2.conv4.seblock/UpCunet2x.unet2.conv4.seblock.conv2/BiasAdd"], "attr": {"T": {"type": "DT_FLOAT"}}}, {"name": "StatefulPartitionedCall/model_2/UpCunet2x/UpCunet2x.unet2/UpCunet2x.unet2.conv4/UpCunet2x.unet2.conv4.seblock/Mul", "op": "Mul", "input": ["StatefulPartitionedCall/model_2/UpCunet2x/UpCunet2x.unet2/UpCunet2x.unet2.conv4/sequential_17/leaky_re_lu_51/LeakyRelu", "StatefulPartitionedCall/model_2/UpCunet2x/UpCunet2x.unet2/UpCunet2x.unet2.conv4/UpCunet2x.unet2.conv4.seblock/Sigmoid"], "attr": {"T": {"type": "DT_FLOAT"}}}, {"name": "StatefulPartitionedCall/model_2/UpCunet2x/UpCunet2x.unet2/UpCunet2x.unet2.conv4_up/Shape", "op": "Shape", "input": ["StatefulPartitionedCall/model_2/UpCunet2x/UpCunet2x.unet2/UpCunet2x.unet2.conv4/UpCunet2x.unet2.conv4.seblock/Mul"], "attr": {"T": {"type": "DT_FLOAT"}, "out_type": {"type": "DT_INT32"}}, "experimentalType": {"typeId": "TFT_PRODUCT", "args": [{"typeId": "TFT_SHAPE_TENSOR", "args": [{"typeId": "TFT_INT32"}]}]}}, {"name": "StatefulPartitionedCall/model_2/UpCunet2x/UpCunet2x.unet2/UpCunet2x.unet2.conv4_up/strided_slice", "op": "StridedSlice", "input": ["StatefulPartitionedCall/model_2/UpCunet2x/UpCunet2x.unet2/UpCunet2x.unet2.conv4_up/Shape", "StatefulPartitionedCall/model_2/UpCunet2x/UpCunet2x.unet2/UpCunet2x.unet2.conv4_up/strided_slice/stack", "StatefulPartitionedCall/model_2/UpCunet2x/UpCunet2x.unet2/UpCunet2x.unet2.conv4_up/strided_slice/stack_1", "StatefulPartitionedCall/model_2/UpCunet2x/UpCunet2x.unet2/UpCunet2x.unet2.conv4_up/strided_slice/stack_2"], "attr": {"shrink_axis_mask": {"i": "1"}, "new_axis_mask": {"i": "0"}, "Index": {"type": "DT_INT32"}, "begin_mask": {"i": "0"}, "end_mask": {"i": "0"}, "T": {"type": "DT_INT32"}, "ellipsis_mask": {"i": "0"}}}, {"name": "StatefulPartitionedCall/model_2/UpCunet2x/UpCunet2x.unet2/UpCunet2x.unet2.conv4_up/strided_slice_1", "op": "StridedSlice", "input": ["StatefulPartitionedCall/model_2/UpCunet2x/UpCunet2x.unet2/UpCunet2x.unet2.conv4_up/Shape", "StatefulPartitionedCall/model_2/UpCunet2x/UpCunet2x.unet2/UpCunet2x.unet2.conv4_up/strided_slice_1/stack", "StatefulPartitionedCall/model_2/UpCunet2x/UpCunet2x.unet2/UpCunet2x.unet2.conv4_up/strided_slice_1/stack_1", "StatefulPartitionedCall/model_2/UpCunet2x/UpCunet2x.unet2/UpCunet2x.unet2.conv4_up/strided_slice_1/stack_2"], "attr": {"shrink_axis_mask": {"i": "1"}, "Index": {"type": "DT_INT32"}, "new_axis_mask": {"i": "0"}, "begin_mask": {"i": "0"}, "end_mask": {"i": "0"}, "T": {"type": "DT_INT32"}, "ellipsis_mask": {"i": "0"}}}, {"name": "StatefulPartitionedCall/model_2/UpCunet2x/UpCunet2x.unet2/UpCunet2x.unet2.conv4_up/strided_slice_2", "op": "StridedSlice", "input": ["StatefulPartitionedCall/model_2/UpCunet2x/UpCunet2x.unet2/UpCunet2x.unet2.conv4_up/Shape", "StatefulPartitionedCall/model_2/UpCunet2x/UpCunet2x.unet2/UpCunet2x.unet2.conv4_up/strided_slice_2/stack", "StatefulPartitionedCall/model_2/UpCunet2x/UpCunet2x.unet2/UpCunet2x.unet2.conv4_up/strided_slice_2/stack_1", "StatefulPartitionedCall/model_2/UpCunet2x/UpCunet2x.unet2/UpCunet2x.unet2.conv4_up/strided_slice_2/stack_2"], "attr": {"shrink_axis_mask": {"i": "1"}, "new_axis_mask": {"i": "0"}, "Index": {"type": "DT_INT32"}, "begin_mask": {"i": "0"}, "end_mask": {"i": "0"}, "T": {"type": "DT_INT32"}, "ellipsis_mask": {"i": "0"}}}, {"name": "StatefulPartitionedCall/model_2/UpCunet2x/UpCunet2x.unet2/UpCunet2x.unet2.conv4_up/mul", "op": "Mul", "input": ["StatefulPartitionedCall/model_2/UpCunet2x/UpCunet2x.unet2/UpCunet2x.unet2.conv4_up/strided_slice_1", "StatefulPartitionedCall/model_2/UpCunet2x/UpCunet2x.unet2/UpCunet2x.unet2.conv4_up/mul/y"], "attr": {"T": {"type": "DT_INT32"}}}, {"name": "StatefulPartitionedCall/model_2/UpCunet2x/UpCunet2x.unet2/UpCunet2x.unet2.conv4_up/mul_1", "op": "Mul", "input": ["StatefulPartitionedCall/model_2/UpCunet2x/UpCunet2x.unet2/UpCunet2x.unet2.conv4_up/strided_slice_2", "StatefulPartitionedCall/model_2/UpCunet2x/UpCunet2x.unet2/UpCunet2x.unet2.conv4_up/mul_1/y"], "attr": {"T": {"type": "DT_INT32"}}}, {"name": "StatefulPartitionedCall/model_2/UpCunet2x/UpCunet2x.unet2/UpCunet2x.unet2.conv4_up/stack", "op": "Pack", "input": ["StatefulPartitionedCall/model_2/UpCunet2x/UpCunet2x.unet2/UpCunet2x.unet2.conv4_up/strided_slice", "StatefulPartitionedCall/model_2/UpCunet2x/UpCunet2x.unet2/UpCunet2x.unet2.conv4_up/mul", "StatefulPartitionedCall/model_2/UpCunet2x/UpCunet2x.unet2/UpCunet2x.unet2.conv4_up/mul_1", "StatefulPartitionedCall/model_2/UpCunet2x/UpCunet2x.unet2/UpCunet2x.unet2.conv4_up/stack/3"], "attr": {"N": {"i": "4"}, "axis": {"i": "0"}, "T": {"type": "DT_INT32"}}}, {"name": "StatefulPartitionedCall/model_2/UpCunet2x/UpCunet2x.unet2/UpCunet2x.unet2.conv4_up/conv2d_transpose", "op": "Conv2DBackpropInput", "input": ["StatefulPartitionedCall/model_2/UpCunet2x/UpCunet2x.unet2/UpCunet2x.unet2.conv4_up/stack", "StatefulPartitionedCall/model_2/UpCunet2x/UpCunet2x.unet2/UpCunet2x.unet2.conv4_up/conv2d_transpose/ReadVariableOp", "StatefulPartitionedCall/model_2/UpCunet2x/UpCunet2x.unet2/UpCunet2x.unet2.conv4/UpCunet2x.unet2.conv4.seblock/Mul"], "attr": {"padding": {"s": "VkFMSUQ="}, "data_format": {"s": "TkhXQw=="}, "strides": {"list": {"i": ["1", "2", "2", "1"]}}, "use_cudnn_on_gpu": {"b": true}, "T": {"type": "DT_FLOAT"}, "explicit_paddings": {"list": {}}, "dilations": {"list": {"i": ["1", "1", "1", "1"]}}}}, {"name": "StatefulPartitionedCall/model_2/UpCunet2x/UpCunet2x.unet2/UpCunet2x.unet2.conv4_up/BiasAdd", "op": "BiasAdd", "input": ["StatefulPartitionedCall/model_2/UpCunet2x/UpCunet2x.unet2/UpCunet2x.unet2.conv4_up/conv2d_transpose", "StatefulPartitionedCall/model_2/UpCunet2x/UpCunet2x.unet2/UpCunet2x.unet2.conv4_up/BiasAdd/ReadVariableOp"], "attr": {"data_format": {"s": "TkhXQw=="}, "T": {"type": "DT_FLOAT"}}}, {"name": "StatefulPartitionedCall/model_2/UpCunet2x/UpCunet2x.unet2/leaky_re_lu_6/LeakyRelu", "op": "LeakyRelu", "input": ["StatefulPartitionedCall/model_2/UpCunet2x/UpCunet2x.unet2/UpCunet2x.unet2.conv4_up/BiasAdd"], "attr": {"alpha": {"f": 0.1}, "T": {"type": "DT_FLOAT"}}}, {"name": "StatefulPartitionedCall/model_2/UpCunet2x/UpCunet2x.unet2/Add_1", "op": "AddV2", "input": ["StatefulPartitionedCall/model_2/UpCunet2x/UpCunet2x.unet2/strided_slice", "StatefulPartitionedCall/model_2/UpCunet2x/UpCunet2x.unet2/leaky_re_lu_6/LeakyRelu"], "attr": {"T": {"type": "DT_FLOAT"}}}, {"name": "StatefulPartitionedCall/model_2/UpCunet2x/UpCunet2x.unet2/leaky_re_lu_7/LeakyRelu", "op": "_FusedConv2D", "input": ["StatefulPartitionedCall/model_2/UpCunet2x/UpCunet2x.unet2/Add_1", "StatefulPartitionedCall/model_2/UpCunet2x/UpCunet2x.unet2/UpCunet2x.unet2.conv5/Conv2D/ReadVariableOp", "StatefulPartitionedCall/model_2/UpCunet2x/UpCunet2x.unet2/UpCunet2x.unet2.conv5/BiasAdd/ReadVariableOp"], "device": "/device:CPU:0", "attr": {"num_host_args": {"i": "0"}, "data_format": {"s": "TkhXQw=="}, "filter_format": {"s": "SFdJTw=="}, "fused_ops": {"list": {"s": ["Qmlhc0FkZA==", "TGVha3lSZWx1"]}}, "num_args": {"i": "1"}, "strides": {"list": {"i": ["1", "1", "1", "1"]}}, "TArgs": {"list": {"type": ["DT_FLOAT"]}}, "padding": {"s": "VkFMSUQ="}, "use_cudnn_on_gpu": {"b": true}, "leakyrelu_alpha": {"f": 0.1}, "epsilon": {"f": 0.0}, "T": {"type": "DT_FLOAT"}, "explicit_paddings": {"list": {}}, "dilations": {"list": {"i": ["1", "1", "1", "1"]}}}}, {"name": "StatefulPartitionedCall/model_2/UpCunet2x/UpCunet2x.unet2/UpCunet2x.unet2.conv_bottom/BiasAdd", "op": "_FusedConv2D", "input": ["StatefulPartitionedCall/model_2/UpCunet2x/UpCunet2x.unet2/leaky_re_lu_7/LeakyRelu", "StatefulPartitionedCall/model_2/UpCunet2x/UpCunet2x.unet2/UpCunet2x.unet2.conv_bottom/Conv2D/ReadVariableOp", "StatefulPartitionedCall/model_2/UpCunet2x/UpCunet2x.unet2/UpCunet2x.unet2.conv_bottom/BiasAdd/ReadVariableOp"], "device": "/device:CPU:0", "attr": {"num_host_args": {"i": "0"}, "data_format": {"s": "TkhXQw=="}, "filter_format": {"s": "SFdJTw=="}, "fused_ops": {"list": {"s": ["Qmlhc0FkZA=="]}}, "num_args": {"i": "1"}, "strides": {"list": {"i": ["1", "1", "1", "1"]}}, "TArgs": {"list": {"type": ["DT_FLOAT"]}}, "padding": {"s": "VkFMSUQ="}, "use_cudnn_on_gpu": {"b": true}, "leakyrelu_alpha": {"f": 0.2}, "epsilon": {"f": 0.0}, "T": {"type": "DT_FLOAT"}, "explicit_paddings": {"list": {}}, "dilations": {"list": {"i": ["1", "1", "1", "1"]}}}}, {"name": "StatefulPartitionedCall/model_2/UpCunet2x/Add_5", "op": "AddV2", "input": ["StatefulPartitionedCall/model_2/UpCunet2x/UpCunet2x.unet2/UpCunet2x.unet2.conv_bottom/BiasAdd", "StatefulPartitionedCall/model_2/UpCunet2x/strided_slice_4"], "attr": {"T": {"type": "DT_FLOAT"}}}, {"name": "StatefulPartitionedCall/model_2/UpCunet2x/cond", "op": "StatelessIf", "input": ["StatefulPartitionedCall/model_2/UpCunet2x/LogicalOr", "StatefulPartitionedCall/model_2/UpCunet2x/strided_slice_1", "StatefulPartitionedCall/model_2/UpCunet2x/strided_slice_2", "StatefulPartitionedCall/model_2/UpCunet2x/Add_5"], "attr": {"Tin": {"list": {"type": ["DT_INT32", "DT_INT32", "DT_FLOAT"]}}, "Tout": {"list": {"type": ["DT_FLOAT"]}}, "output_shapes": {"list": {"shape": [{"dim": [{"size": "-1"}, {"size": "-1"}, {"size": "-1"}, {"size": "3"}]}]}}, "_lower_using_switch_merge": {"b": false}, "Tcond": {"type": "DT_BOOL"}, "then_branch": {"func": {"name": "__inference_model_2_UpCunet2x_cond_true_9778_219_tfg_region_specialized_StatefulPartitionedCall_model_2_UpCunet2x_cond_0_tfg_region_specialized_StatefulPartitionedCall_model_2_UpCunet2x_cond_0"}}, "else_branch": {"func": {"name": "__inference_model_2_UpCunet2x_cond_false_9779_7_tfg_region_specialized_StatefulPartitionedCall_model_2_UpCunet2x_cond_1_tfg_region_specialized_StatefulPartitionedCall_model_2_UpCunet2x_cond_1"}}, "_read_only_resource_inputs": {"list": {}}}}, {"name": "StatefulPartitionedCall/model_2/UpCunet2x/sub_4", "op": "Sub", "input": ["StatefulPartitionedCall/model_2/UpCunet2x/cond", "StatefulPartitionedCall/model_2/UpCunet2x/sub_4/y"], "attr": {"T": {"type": "DT_FLOAT"}}}, {"name": "StatefulPartitionedCall/model_2/UpCunet2x/mul_2", "op": "Mul", "input": ["StatefulPartitionedCall/model_2/UpCunet2x/sub_4", "StatefulPartitionedCall/model_2/UpCunet2x/mul_2/y"], "attr": {"T": {"type": "DT_FLOAT"}}}, {"name": "StatefulPartitionedCall/model_2/UpCunet2x/Round", "op": "Round", "input": ["StatefulPartitionedCall/model_2/UpCunet2x/mul_2"], "attr": {"T": {"type": "DT_FLOAT"}}}, {"name": "StatefulPartitionedCall/model_2/UpCunet2x/clip_by_value/Minimum", "op": "Minimum", "input": ["StatefulPartitionedCall/model_2/UpCunet2x/Round", "StatefulPartitionedCall/model_2/UpCunet2x/clip_by_value/Minimum/y"], "attr": {"T": {"type": "DT_FLOAT"}}}, {"name": "StatefulPartitionedCall/model_2/UpCunet2x/clip_by_value", "op": "Maximum", "input": ["StatefulPartitionedCall/model_2/UpCunet2x/clip_by_value/Minimum", "StatefulPartitionedCall/model_2/UpCunet2x/clip_by_value/y"], "attr": {"T": {"type": "DT_FLOAT"}}}, {"name": "StatefulPartitionedCall/model_2/UpCunet2x/Cast_1", "op": "Cast", "input": ["StatefulPartitionedCall/model_2/UpCunet2x/clip_by_value"], "attr": {"SrcT": {"type": "DT_FLOAT"}, "DstT": {"type": "DT_UINT8"}, "Truncate": {"b": false}}}, {"name": "Identity", "op": "Identity", "input": ["StatefulPartitionedCall/model_2/UpCunet2x/Cast_1"], "attr": {"T": {"type": "DT_UINT8"}}}], "library": {"function": [{"signature": {"name": "__inference_model_2_UpCunet2x_cond_true_9778_219_tfg_region_specialized_StatefulPartitionedCall_model_2_UpCunet2x_cond_0_tfg_region_specialized_StatefulPartitionedCall_model_2_UpCunet2x_cond_0", "inputArg": [{"name": "StatefulPartitionedCall/model_2/UpCunet2x/strided_slice_1_tfg_result_0", "type": "DT_INT32"}, {"name": "StatefulPartitionedCall/model_2/UpCunet2x/strided_slice_2_tfg_result_0", "type": "DT_INT32"}, {"name": "StatefulPartitionedCall/model_2/UpCunet2x/Add_5_tfg_result_0", "type": "DT_FLOAT"}], "outputArg": [{"name": "model_2_upcunet2x_cond_identity", "type": "DT_FLOAT"}]}, "nodeDef": [{"name": "__inference_model_2_UpCunet2x_cond_true_9778_219_tfg_region_specialized_StatefulPartitionedCall_model_2_UpCunet2x_cond_0_tfg_region_specialized_StatefulPartitionedCall_model_2_UpCunet2x_cond_0/model_2/UpCunet2x/cond/strided_slice/stack_tfg_inlined_StatefulPartitionedCall/model_2/UpCunet2x/cond_0_tfg_inlined_StatefulPartitionedCall/model_2/UpCunet2x/cond_0", "op": "Const", "attr": {"value": {"tensor": {"dtype": "DT_INT32", "tensorShape": {"dim": [{"size": "4"}]}}}, "dtype": {"type": "DT_INT32"}}}, {"name": "__inference_model_2_UpCunet2x_cond_true_9778_219_tfg_region_specialized_StatefulPartitionedCall_model_2_UpCunet2x_cond_0_tfg_region_specialized_StatefulPartitionedCall_model_2_UpCunet2x_cond_0/model_2/UpCunet2x/cond/strided_slice/stack_1/0_tfg_inlined_StatefulPartitionedCall/model_2/UpCunet2x/cond_0_tfg_inlined_StatefulPartitionedCall/model_2/UpCunet2x/cond_0", "op": "Const", "attr": {"value": {"tensor": {"dtype": "DT_INT32", "tensorShape": {}}}, "dtype": {"type": "DT_INT32"}}}, {"name": "__inference_model_2_UpCunet2x_cond_true_9778_219_tfg_region_specialized_StatefulPartitionedCall_model_2_UpCunet2x_cond_0_tfg_region_specialized_StatefulPartitionedCall_model_2_UpCunet2x_cond_0/model_2/UpCunet2x/cond/mul/y_tfg_inlined_StatefulPartitionedCall/model_2/UpCunet2x/cond_0_tfg_inlined_StatefulPartitionedCall/model_2/UpCunet2x/cond_0", "op": "Const", "attr": {"value": {"tensor": {"dtype": "DT_INT32", "tensorShape": {}}}, "dtype": {"type": "DT_INT32"}}}, {"name": "__inference_model_2_UpCunet2x_cond_true_9778_219_tfg_region_specialized_StatefulPartitionedCall_model_2_UpCunet2x_cond_0_tfg_region_specialized_StatefulPartitionedCall_model_2_UpCunet2x_cond_0/model_2/UpCunet2x/cond/mul_1/y_tfg_inlined_StatefulPartitionedCall/model_2/UpCunet2x/cond_0_tfg_inlined_StatefulPartitionedCall/model_2/UpCunet2x/cond_0", "op": "Const", "attr": {"value": {"tensor": {"dtype": "DT_INT32", "tensorShape": {}}}, "dtype": {"type": "DT_INT32"}}}, {"name": "__inference_model_2_UpCunet2x_cond_true_9778_219_tfg_region_specialized_StatefulPartitionedCall_model_2_UpCunet2x_cond_0_tfg_region_specialized_StatefulPartitionedCall_model_2_UpCunet2x_cond_0/model_2/UpCunet2x/cond/strided_slice/stack_1/3_tfg_inlined_StatefulPartitionedCall/model_2/UpCunet2x/cond_0_tfg_inlined_StatefulPartitionedCall/model_2/UpCunet2x/cond_0", "op": "Const", "attr": {"value": {"tensor": {"dtype": "DT_INT32", "tensorShape": {}}}, "dtype": {"type": "DT_INT32"}}}, {"name": "__inference_model_2_UpCunet2x_cond_true_9778_219_tfg_region_specialized_StatefulPartitionedCall_model_2_UpCunet2x_cond_0_tfg_region_specialized_StatefulPartitionedCall_model_2_UpCunet2x_cond_0/model_2/UpCunet2x/cond/strided_slice/stack_2_tfg_inlined_StatefulPartitionedCall/model_2/UpCunet2x/cond_0_tfg_inlined_StatefulPartitionedCall/model_2/UpCunet2x/cond_0", "op": "Const", "attr": {"value": {"tensor": {"dtype": "DT_INT32", "tensorShape": {"dim": [{"size": "4"}]}}}, "dtype": {"type": "DT_INT32"}}}, {"name": "model_2/UpCunet2x/cond/mul_tfg_inlined_StatefulPartitionedCall/model_2/UpCunet2x/cond_0_tfg_inlined_StatefulPartitionedCall/model_2/UpCunet2x/cond_0", "op": "Mul", "input": ["StatefulPartitionedCall/model_2/UpCunet2x/strided_slice_1_tfg_result_0", "__inference_model_2_UpCunet2x_cond_true_9778_219_tfg_region_specialized_StatefulPartitionedCall_model_2_UpCunet2x_cond_0_tfg_region_specialized_StatefulPartitionedCall_model_2_UpCunet2x_cond_0/model_2/UpCunet2x/cond/mul/y_tfg_inlined_StatefulPartitionedCall/model_2/UpCunet2x/cond_0_tfg_inlined_StatefulPartitionedCall/model_2/UpCunet2x/cond_0:output:0"], "attr": {"T": {"type": "DT_INT32"}}}, {"name": "model_2/UpCunet2x/cond/mul_1_tfg_inlined_StatefulPartitionedCall/model_2/UpCunet2x/cond_0_tfg_inlined_StatefulPartitionedCall/model_2/UpCunet2x/cond_0", "op": "Mul", "input": ["StatefulPartitionedCall/model_2/UpCunet2x/strided_slice_2_tfg_result_0", "__inference_model_2_UpCunet2x_cond_true_9778_219_tfg_region_specialized_StatefulPartitionedCall_model_2_UpCunet2x_cond_0_tfg_region_specialized_StatefulPartitionedCall_model_2_UpCunet2x_cond_0/model_2/UpCunet2x/cond/mul_1/y_tfg_inlined_StatefulPartitionedCall/model_2/UpCunet2x/cond_0_tfg_inlined_StatefulPartitionedCall/model_2/UpCunet2x/cond_0:output:0"], "attr": {"T": {"type": "DT_INT32"}}}, {"name": "model_2/UpCunet2x/cond/strided_slice/stack_1_tfg_inlined_StatefulPartitionedCall/model_2/UpCunet2x/cond_0_tfg_inlined_StatefulPartitionedCall/model_2/UpCunet2x/cond_0", "op": "Pack", "input": ["__inference_model_2_UpCunet2x_cond_true_9778_219_tfg_region_specialized_StatefulPartitionedCall_model_2_UpCunet2x_cond_0_tfg_region_specialized_StatefulPartitionedCall_model_2_UpCunet2x_cond_0/model_2/UpCunet2x/cond/strided_slice/stack_1/0_tfg_inlined_StatefulPartitionedCall/model_2/UpCunet2x/cond_0_tfg_inlined_StatefulPartitionedCall/model_2/UpCunet2x/cond_0:output:0", "model_2/UpCunet2x/cond/mul_tfg_inlined_StatefulPartitionedCall/model_2/UpCunet2x/cond_0_tfg_inlined_StatefulPartitionedCall/model_2/UpCunet2x/cond_0:z:0", "model_2/UpCunet2x/cond/mul_1_tfg_inlined_StatefulPartitionedCall/model_2/UpCunet2x/cond_0_tfg_inlined_StatefulPartitionedCall/model_2/UpCunet2x/cond_0:z:0", "__inference_model_2_UpCunet2x_cond_true_9778_219_tfg_region_specialized_StatefulPartitionedCall_model_2_UpCunet2x_cond_0_tfg_region_specialized_StatefulPartitionedCall_model_2_UpCunet2x_cond_0/model_2/UpCunet2x/cond/strided_slice/stack_1/3_tfg_inlined_StatefulPartitionedCall/model_2/UpCunet2x/cond_0_tfg_inlined_StatefulPartitionedCall/model_2/UpCunet2x/cond_0:output:0"], "attr": {"N": {"i": "4"}, "axis": {"i": "0"}, "T": {"type": "DT_INT32"}}}, {"name": "model_2/UpCunet2x/cond/strided_slice_tfg_inlined_StatefulPartitionedCall/model_2/UpCunet2x/cond_0_tfg_inlined_StatefulPartitionedCall/model_2/UpCunet2x/cond_0", "op": "StridedSlice", "input": ["StatefulPartitionedCall/model_2/UpCunet2x/Add_5_tfg_result_0", "__inference_model_2_UpCunet2x_cond_true_9778_219_tfg_region_specialized_StatefulPartitionedCall_model_2_UpCunet2x_cond_0_tfg_region_specialized_StatefulPartitionedCall_model_2_UpCunet2x_cond_0/model_2/UpCunet2x/cond/strided_slice/stack_tfg_inlined_StatefulPartitionedCall/model_2/UpCunet2x/cond_0_tfg_inlined_StatefulPartitionedCall/model_2/UpCunet2x/cond_0:output:0", "model_2/UpCunet2x/cond/strided_slice/stack_1_tfg_inlined_StatefulPartitionedCall/model_2/UpCunet2x/cond_0_tfg_inlined_StatefulPartitionedCall/model_2/UpCunet2x/cond_0:output:0", "__inference_model_2_UpCunet2x_cond_true_9778_219_tfg_region_specialized_StatefulPartitionedCall_model_2_UpCunet2x_cond_0_tfg_region_specialized_StatefulPartitionedCall_model_2_UpCunet2x_cond_0/model_2/UpCunet2x/cond/strided_slice/stack_2_tfg_inlined_StatefulPartitionedCall/model_2/UpCunet2x/cond_0_tfg_inlined_StatefulPartitionedCall/model_2/UpCunet2x/cond_0:output:0"], "attr": {"shrink_axis_mask": {"i": "0"}, "Index": {"type": "DT_INT32"}, "new_axis_mask": {"i": "0"}, "begin_mask": {"i": "15"}, "T": {"type": "DT_FLOAT"}, "end_mask": {"i": "9"}, "ellipsis_mask": {"i": "0"}}}], "ret": {"model_2_upcunet2x_cond_identity": "model_2/UpCunet2x/cond/strided_slice_tfg_inlined_StatefulPartitionedCall/model_2/UpCunet2x/cond_0_tfg_inlined_StatefulPartitionedCall/model_2/UpCunet2x/cond_0:output:0"}, "attr": {"_construction_context": {"s": "a0VhZ2VyUnVudGltZQ=="}}, "argAttr": {"2": {"attr": {"_output_shapes": {"list": {"shape": [{"unknownRank": true}]}}}}, "0": {"attr": {"_output_shapes": {"list": {"shape": [{"unknownRank": true}]}}}}, "1": {"attr": {"_output_shapes": {"list": {"shape": [{"unknownRank": true}]}}}}}}, {"signature": {"name": "__inference_model_2_UpCunet2x_cond_false_9779_7_tfg_region_specialized_StatefulPartitionedCall_model_2_UpCunet2x_cond_1_tfg_region_specialized_StatefulPartitionedCall_model_2_UpCunet2x_cond_1", "inputArg": [{"name": "StatefulPartitionedCall/model_2/UpCunet2x/strided_slice_1_tfg_result_0", "type": "DT_INT32"}, {"name": "StatefulPartitionedCall/model_2/UpCunet2x/strided_slice_2_tfg_result_0", "type": "DT_INT32"}, {"name": "StatefulPartitionedCall/model_2/UpCunet2x/Add_5_tfg_result_0", "type": "DT_FLOAT"}], "outputArg": [{"name": "model_2_upcunet2x_cond_identity", "type": "DT_FLOAT"}]}, "ret": {"model_2_upcunet2x_cond_identity": "StatefulPartitionedCall/model_2/UpCunet2x/Add_5_tfg_result_0"}, "attr": {"_construction_context": {"s": "a0VhZ2VyUnVudGltZQ=="}}, "argAttr": {"2": {"attr": {"_output_shapes": {"list": {"shape": [{"unknownRank": true}]}}}}, "0": {"attr": {"_output_shapes": {"list": {"shape": [{"unknownRank": true}]}}}}, "1": {"attr": {"_output_shapes": {"list": {"shape": [{"unknownRank": true}]}}}}}}]}, "versions": {"producer": 1482, "minConsumer": 12}}, "weightsManifest": [{"paths": ["group1-shard1of2.bin", "group1-shard2of2.bin"], "weights": [{"name": "StatefulPartitionedCall/model_2/UpCunet2x/UpCunet2x.unet2/strided_slice/stack", "shape": [4], "dtype": "int32"}, {"name": "StatefulPartitionedCall/model_2/UpCunet2x/UpCunet2x.unet2/strided_slice/stack_1", "shape": [4], "dtype": "int32"}, {"name": "StatefulPartitionedCall/model_2/UpCunet2x/UpCunet2x.unet2/strided_slice/stack_2", "shape": [4], "dtype": "int32"}, {"name": "StatefulPartitionedCall/model_2/UpCunet2x/UpCunet2x.unet2/UpCunet2x.unet2.conv4_up/strided_slice/stack", "shape": [1], "dtype": "int32"}, {"name": "StatefulPartitionedCall/model_2/UpCunet2x/UpCunet2x.unet2/UpCunet2x.unet2.conv4_up/strided_slice/stack_1", "shape": [1], "dtype": "int32"}, {"name": "StatefulPartitionedCall/model_2/UpCunet2x/UpCunet2x.unet2/UpCunet2x.unet2.conv4_up/strided_slice/stack_2", "shape": [1], "dtype": "int32"}, {"name": "StatefulPartitionedCall/model_2/UpCunet2x/UpCunet2x.unet2/UpCunet2x.unet2.conv4_up/strided_slice_1/stack", "shape": [1], "dtype": "int32"}, {"name": "StatefulPartitionedCall/model_2/UpCunet2x/UpCunet2x.unet2/UpCunet2x.unet2.conv4_up/strided_slice_1/stack_1", "shape": [1], "dtype": "int32"}, {"name": "StatefulPartitionedCall/model_2/UpCunet2x/UpCunet2x.unet2/UpCunet2x.unet2.conv4_up/strided_slice_1/stack_2", "shape": [1], "dtype": "int32"}, {"name": "StatefulPartitionedCall/model_2/UpCunet2x/UpCunet2x.unet2/UpCunet2x.unet2.conv4_up/mul/y", "shape": [], "dtype": "int32"}, {"name": "StatefulPartitionedCall/model_2/UpCunet2x/UpCunet2x.unet2/UpCunet2x.unet2.conv4_up/strided_slice_2/stack", "shape": [1], "dtype": "int32"}, {"name": "StatefulPartitionedCall/model_2/UpCunet2x/UpCunet2x.unet2/UpCunet2x.unet2.conv4_up/strided_slice_2/stack_1", "shape": [1], "dtype": "int32"}, {"name": "StatefulPartitionedCall/model_2/UpCunet2x/UpCunet2x.unet2/UpCunet2x.unet2.conv4_up/strided_slice_2/stack_2", "shape": [1], "dtype": "int32"}, {"name": "StatefulPartitionedCall/model_2/UpCunet2x/UpCunet2x.unet2/UpCunet2x.unet2.conv4_up/mul_1/y", "shape": [], "dtype": "int32"}, {"name": "StatefulPartitionedCall/model_2/UpCunet2x/UpCunet2x.unet2/UpCunet2x.unet2.conv4_up/stack/3", "shape": [], "dtype": "int32"}, {"name": "StatefulPartitionedCall/model_2/UpCunet2x/UpCunet2x.unet2/UpCunet2x.unet2.conv4_up/conv2d_transpose/ReadVariableOp", "shape": [2, 2, 64, 64], "dtype": "float32"}, {"name": "StatefulPartitionedCall/model_2/UpCunet2x/UpCunet2x.unet2/strided_slice_1/stack", "shape": [4], "dtype": "int32"}, {"name": "StatefulPartitionedCall/model_2/UpCunet2x/UpCunet2x.unet2/strided_slice_1/stack_1", "shape": [4], "dtype": "int32"}, {"name": "StatefulPartitionedCall/model_2/UpCunet2x/UpCunet2x.unet2/strided_slice_1/stack_2", "shape": [4], "dtype": "int32"}, {"name": "StatefulPartitionedCall/model_2/UpCunet2x/UpCunet2x.unet2/UpCunet2x.unet2.conv3_up/strided_slice/stack", "shape": [1], "dtype": "int32"}, {"name": "StatefulPartitionedCall/model_2/UpCunet2x/UpCunet2x.unet2/UpCunet2x.unet2.conv3_up/strided_slice/stack_1", "shape": [1], "dtype": "int32"}, {"name": "StatefulPartitionedCall/model_2/UpCunet2x/UpCunet2x.unet2/UpCunet2x.unet2.conv3_up/strided_slice/stack_2", "shape": [1], "dtype": "int32"}, {"name": "StatefulPartitionedCall/model_2/UpCunet2x/UpCunet2x.unet2/UpCunet2x.unet2.conv3_up/strided_slice_1/stack", "shape": [1], "dtype": "int32"}, {"name": "StatefulPartitionedCall/model_2/UpCunet2x/UpCunet2x.unet2/UpCunet2x.unet2.conv3_up/strided_slice_1/stack_1", "shape": [1], "dtype": "int32"}, {"name": "StatefulPartitionedCall/model_2/UpCunet2x/UpCunet2x.unet2/UpCunet2x.unet2.conv3_up/strided_slice_1/stack_2", "shape": [1], "dtype": "int32"}, {"name": "StatefulPartitionedCall/model_2/UpCunet2x/UpCunet2x.unet2/UpCunet2x.unet2.conv3_up/mul/y", "shape": [], "dtype": "int32"}, {"name": "StatefulPartitionedCall/model_2/UpCunet2x/UpCunet2x.unet2/UpCunet2x.unet2.conv3_up/strided_slice_2/stack", "shape": [1], "dtype": "int32"}, {"name": "StatefulPartitionedCall/model_2/UpCunet2x/UpCunet2x.unet2/UpCunet2x.unet2.conv3_up/strided_slice_2/stack_1", "shape": [1], "dtype": "int32"}, {"name": "StatefulPartitionedCall/model_2/UpCunet2x/UpCunet2x.unet2/UpCunet2x.unet2.conv3_up/strided_slice_2/stack_2", "shape": [1], "dtype": "int32"}, {"name": "StatefulPartitionedCall/model_2/UpCunet2x/UpCunet2x.unet2/UpCunet2x.unet2.conv3_up/mul_1/y", "shape": [], "dtype": "int32"}, {"name": "StatefulPartitionedCall/model_2/UpCunet2x/UpCunet2x.unet2/UpCunet2x.unet2.conv3_up/stack/3", "shape": [], "dtype": "int32"}, {"name": "StatefulPartitionedCall/model_2/UpCunet2x/UpCunet2x.unet2/UpCunet2x.unet2.conv3_up/conv2d_transpose/ReadVariableOp", "shape": [2, 2, 128, 128], "dtype": "float32"}, {"name": "StatefulPartitionedCall/model_2/UpCunet2x/UpCunet2x.unet2/UpCunet2x.unet2.conv1/sequential_14/UpCunet2x.unet2.conv1.conv.0/Conv2D/ReadVariableOp", "shape": [3, 3, 3, 32], "dtype": "float32"}, {"name": "StatefulPartitionedCall/model_2/UpCunet2x/UpCunet2x.unet2/UpCunet2x.unet2.conv1/sequential_14/UpCunet2x.unet2.conv1.conv.0/BiasAdd/ReadVariableOp", "shape": [32], "dtype": "float32"}, {"name": "StatefulPartitionedCall/model_2/UpCunet2x/UpCunet2x.unet2/UpCunet2x.unet2.conv1/sequential_14/UpCunet2x.unet2.conv1.conv.2/Conv2D/ReadVariableOp", "shape": [3, 3, 32, 64], "dtype": "float32"}, {"name": "StatefulPartitionedCall/model_2/UpCunet2x/UpCunet2x.unet2/UpCunet2x.unet2.conv1/sequential_14/UpCunet2x.unet2.conv1.conv.2/BiasAdd/ReadVariableOp", "shape": [64], "dtype": "float32"}, {"name": "StatefulPartitionedCall/model_2/UpCunet2x/UpCunet2x.unet2/UpCunet2x.unet2.conv1_down/Conv2D/ReadVariableOp", "shape": [2, 2, 64, 64], "dtype": "float32"}, {"name": "StatefulPartitionedCall/model_2/UpCunet2x/UpCunet2x.unet2/UpCunet2x.unet2.conv1_down/BiasAdd/ReadVariableOp", "shape": [64], "dtype": "float32"}, {"name": "StatefulPartitionedCall/model_2/UpCunet2x/UpCunet2x.unet2/UpCunet2x.unet2.conv2/sequential_15/UpCunet2x.unet2.conv2.conv.0/Conv2D/ReadVariableOp", "shape": [3, 3, 64, 64], "dtype": "float32"}, {"name": "StatefulPartitionedCall/model_2/UpCunet2x/UpCunet2x.unet2/UpCunet2x.unet2.conv2/sequential_15/UpCunet2x.unet2.conv2.conv.0/BiasAdd/ReadVariableOp", "shape": [64], "dtype": "float32"}, {"name": "StatefulPartitionedCall/model_2/UpCunet2x/UpCunet2x.unet2/UpCunet2x.unet2.conv2/sequential_15/UpCunet2x.unet2.conv2.conv.2/Conv2D/ReadVariableOp", "shape": [3, 3, 64, 128], "dtype": "float32"}, {"name": "StatefulPartitionedCall/model_2/UpCunet2x/UpCunet2x.unet2/UpCunet2x.unet2.conv2/sequential_15/UpCunet2x.unet2.conv2.conv.2/BiasAdd/ReadVariableOp", "shape": [128], "dtype": "float32"}, {"name": "StatefulPartitionedCall/model_2/UpCunet2x/UpCunet2x.unet2/UpCunet2x.unet2.conv2/UpCunet2x.unet2.conv2.seblock/Mean/reduction_indices", "shape": [2], "dtype": "int32"}, {"name": "StatefulPartitionedCall/model_2/UpCunet2x/UpCunet2x.unet2/UpCunet2x.unet2.conv2/UpCunet2x.unet2.conv2.seblock/UpCunet2x.unet2.conv2.seblock.conv1/Conv2D/ReadVariableOp", "shape": [1, 1, 128, 16], "dtype": "float32"}, {"name": "StatefulPartitionedCall/model_2/UpCunet2x/UpCunet2x.unet2/UpCunet2x.unet2.conv2/UpCunet2x.unet2.conv2.seblock/UpCunet2x.unet2.conv2.seblock.conv1/BiasAdd/ReadVariableOp", "shape": [16], "dtype": "float32"}, {"name": "StatefulPartitionedCall/model_2/UpCunet2x/UpCunet2x.unet2/UpCunet2x.unet2.conv2/UpCunet2x.unet2.conv2.seblock/UpCunet2x.unet2.conv2.seblock.conv2/Conv2D/ReadVariableOp", "shape": [1, 1, 16, 128], "dtype": "float32"}, {"name": "StatefulPartitionedCall/model_2/UpCunet2x/UpCunet2x.unet2/UpCunet2x.unet2.conv2/UpCunet2x.unet2.conv2.seblock/UpCunet2x.unet2.conv2.seblock.conv2/BiasAdd/ReadVariableOp", "shape": [128], "dtype": "float32"}, {"name": "StatefulPartitionedCall/model_2/UpCunet2x/UpCunet2x.unet2/UpCunet2x.unet2.conv2_down/Conv2D/ReadVariableOp", "shape": [2, 2, 128, 128], "dtype": "float32"}, {"name": "StatefulPartitionedCall/model_2/UpCunet2x/UpCunet2x.unet2/UpCunet2x.unet2.conv2_down/BiasAdd/ReadVariableOp", "shape": [128], "dtype": "float32"}, {"name": "StatefulPartitionedCall/model_2/UpCunet2x/UpCunet2x.unet2/UpCunet2x.unet2.conv3/sequential_16/UpCunet2x.unet2.conv3.conv.0/Conv2D/ReadVariableOp", "shape": [3, 3, 128, 256], "dtype": "float32"}, {"name": "StatefulPartitionedCall/model_2/UpCunet2x/UpCunet2x.unet2/UpCunet2x.unet2.conv3/sequential_16/UpCunet2x.unet2.conv3.conv.0/BiasAdd/ReadVariableOp", "shape": [256], "dtype": "float32"}, {"name": "StatefulPartitionedCall/model_2/UpCunet2x/UpCunet2x.unet2/UpCunet2x.unet2.conv3/sequential_16/UpCunet2x.unet2.conv3.conv.2/Conv2D/ReadVariableOp", "shape": [3, 3, 256, 128], "dtype": "float32"}, {"name": "StatefulPartitionedCall/model_2/UpCunet2x/UpCunet2x.unet2/UpCunet2x.unet2.conv3/sequential_16/UpCunet2x.unet2.conv3.conv.2/BiasAdd/ReadVariableOp", "shape": [128], "dtype": "float32"}, {"name": "StatefulPartitionedCall/model_2/UpCunet2x/UpCunet2x.unet2/UpCunet2x.unet2.conv3/UpCunet2x.unet2.conv3.seblock/Mean/reduction_indices", "shape": [2], "dtype": "int32"}, {"name": "StatefulPartitionedCall/model_2/UpCunet2x/UpCunet2x.unet2/UpCunet2x.unet2.conv3/UpCunet2x.unet2.conv3.seblock/UpCunet2x.unet2.conv3.seblock.conv1/Conv2D/ReadVariableOp", "shape": [1, 1, 128, 16], "dtype": "float32"}, {"name": "StatefulPartitionedCall/model_2/UpCunet2x/UpCunet2x.unet2/UpCunet2x.unet2.conv3/UpCunet2x.unet2.conv3.seblock/UpCunet2x.unet2.conv3.seblock.conv1/BiasAdd/ReadVariableOp", "shape": [16], "dtype": "float32"}, {"name": "StatefulPartitionedCall/model_2/UpCunet2x/UpCunet2x.unet2/UpCunet2x.unet2.conv3/UpCunet2x.unet2.conv3.seblock/UpCunet2x.unet2.conv3.seblock.conv2/Conv2D/ReadVariableOp", "shape": [1, 1, 16, 128], "dtype": "float32"}, {"name": "StatefulPartitionedCall/model_2/UpCunet2x/UpCunet2x.unet2/UpCunet2x.unet2.conv3/UpCunet2x.unet2.conv3.seblock/UpCunet2x.unet2.conv3.seblock.conv2/BiasAdd/ReadVariableOp", "shape": [128], "dtype": "float32"}, {"name": "StatefulPartitionedCall/model_2/UpCunet2x/UpCunet2x.unet2/UpCunet2x.unet2.conv3_up/BiasAdd/ReadVariableOp", "shape": [128], "dtype": "float32"}, {"name": "StatefulPartitionedCall/model_2/UpCunet2x/UpCunet2x.unet2/UpCunet2x.unet2.conv4/sequential_17/UpCunet2x.unet2.conv4.conv.0/Conv2D/ReadVariableOp", "shape": [3, 3, 128, 64], "dtype": "float32"}, {"name": "StatefulPartitionedCall/model_2/UpCunet2x/UpCunet2x.unet2/UpCunet2x.unet2.conv4/sequential_17/UpCunet2x.unet2.conv4.conv.0/BiasAdd/ReadVariableOp", "shape": [64], "dtype": "float32"}, {"name": "StatefulPartitionedCall/model_2/UpCunet2x/UpCunet2x.unet2/UpCunet2x.unet2.conv4/sequential_17/UpCunet2x.unet2.conv4.conv.2/Conv2D/ReadVariableOp", "shape": [3, 3, 64, 64], "dtype": "float32"}, {"name": "StatefulPartitionedCall/model_2/UpCunet2x/UpCunet2x.unet2/UpCunet2x.unet2.conv4/sequential_17/UpCunet2x.unet2.conv4.conv.2/BiasAdd/ReadVariableOp", "shape": [64], "dtype": "float32"}, {"name": "StatefulPartitionedCall/model_2/UpCunet2x/UpCunet2x.unet2/UpCunet2x.unet2.conv4/UpCunet2x.unet2.conv4.seblock/Mean/reduction_indices", "shape": [2], "dtype": "int32"}, {"name": "StatefulPartitionedCall/model_2/UpCunet2x/UpCunet2x.unet2/UpCunet2x.unet2.conv4/UpCunet2x.unet2.conv4.seblock/UpCunet2x.unet2.conv4.seblock.conv1/Conv2D/ReadVariableOp", "shape": [1, 1, 64, 8], "dtype": "float32"}, {"name": "StatefulPartitionedCall/model_2/UpCunet2x/UpCunet2x.unet2/UpCunet2x.unet2.conv4/UpCunet2x.unet2.conv4.seblock/UpCunet2x.unet2.conv4.seblock.conv1/BiasAdd/ReadVariableOp", "shape": [8], "dtype": "float32"}, {"name": "StatefulPartitionedCall/model_2/UpCunet2x/UpCunet2x.unet2/UpCunet2x.unet2.conv4/UpCunet2x.unet2.conv4.seblock/UpCunet2x.unet2.conv4.seblock.conv2/Conv2D/ReadVariableOp", "shape": [1, 1, 8, 64], "dtype": "float32"}, {"name": "StatefulPartitionedCall/model_2/UpCunet2x/UpCunet2x.unet2/UpCunet2x.unet2.conv4/UpCunet2x.unet2.conv4.seblock/UpCunet2x.unet2.conv4.seblock.conv2/BiasAdd/ReadVariableOp", "shape": [64], "dtype": "float32"}, {"name": "StatefulPartitionedCall/model_2/UpCunet2x/UpCunet2x.unet2/UpCunet2x.unet2.conv4_up/BiasAdd/ReadVariableOp", "shape": [64], "dtype": "float32"}, {"name": "StatefulPartitionedCall/model_2/UpCunet2x/UpCunet2x.unet2/UpCunet2x.unet2.conv5/Conv2D/ReadVariableOp", "shape": [3, 3, 64, 64], "dtype": "float32"}, {"name": "StatefulPartitionedCall/model_2/UpCunet2x/UpCunet2x.unet2/UpCunet2x.unet2.conv5/BiasAdd/ReadVariableOp", "shape": [64], "dtype": "float32"}, {"name": "StatefulPartitionedCall/model_2/UpCunet2x/UpCunet2x.unet2/UpCunet2x.unet2.conv_bottom/Conv2D/ReadVariableOp", "shape": [3, 3, 64, 3], "dtype": "float32"}, {"name": "StatefulPartitionedCall/model_2/UpCunet2x/UpCunet2x.unet2/UpCunet2x.unet2.conv_bottom/BiasAdd/ReadVariableOp", "shape": [3], "dtype": "float32"}, {"name": "StatefulPartitionedCall/model_2/UpCunet2x/UpCunet2x.unet1/UpCunet2x.unet1.conv_bottom/strided_slice/stack", "shape": [1], "dtype": "int32"}, {"name": "StatefulPartitionedCall/model_2/UpCunet2x/UpCunet2x.unet1/UpCunet2x.unet1.conv_bottom/strided_slice/stack_1", "shape": [1], "dtype": "int32"}, {"name": "StatefulPartitionedCall/model_2/UpCunet2x/UpCunet2x.unet1/UpCunet2x.unet1.conv_bottom/strided_slice/stack_2", "shape": [1], "dtype": "int32"}, {"name": "StatefulPartitionedCall/model_2/UpCunet2x/UpCunet2x.unet1/UpCunet2x.unet1.conv_bottom/strided_slice_1/stack", "shape": [1], "dtype": "int32"}, {"name": "StatefulPartitionedCall/model_2/UpCunet2x/UpCunet2x.unet1/UpCunet2x.unet1.conv_bottom/strided_slice_1/stack_1", "shape": [1], "dtype": "int32"}, {"name": "StatefulPartitionedCall/model_2/UpCunet2x/UpCunet2x.unet1/UpCunet2x.unet1.conv_bottom/strided_slice_1/stack_2", "shape": [1], "dtype": "int32"}, {"name": "StatefulPartitionedCall/model_2/UpCunet2x/UpCunet2x.unet1/UpCunet2x.unet1.conv_bottom/mul/y", "shape": [], "dtype": "int32"}, {"name": "StatefulPartitionedCall/model_2/UpCunet2x/UpCunet2x.unet1/UpCunet2x.unet1.conv_bottom/add/y", "shape": [], "dtype": "int32"}, {"name": "StatefulPartitionedCall/model_2/UpCunet2x/UpCunet2x.unet1/UpCunet2x.unet1.conv_bottom/strided_slice_2/stack", "shape": [1], "dtype": "int32"}, {"name": "StatefulPartitionedCall/model_2/UpCunet2x/UpCunet2x.unet1/UpCunet2x.unet1.conv_bottom/strided_slice_2/stack_1", "shape": [1], "dtype": "int32"}, {"name": "StatefulPartitionedCall/model_2/UpCunet2x/UpCunet2x.unet1/UpCunet2x.unet1.conv_bottom/strided_slice_2/stack_2", "shape": [1], "dtype": "int32"}, {"name": "StatefulPartitionedCall/model_2/UpCunet2x/UpCunet2x.unet1/UpCunet2x.unet1.conv_bottom/mul_1/y", "shape": [], "dtype": "int32"}, {"name": "StatefulPartitionedCall/model_2/UpCunet2x/UpCunet2x.unet1/UpCunet2x.unet1.conv_bottom/add_1/y", "shape": [], "dtype": "int32"}, {"name": "StatefulPartitionedCall/model_2/UpCunet2x/UpCunet2x.unet1/UpCunet2x.unet1.conv_bottom/stack/3", "shape": [], "dtype": "int32"}, {"name": "StatefulPartitionedCall/model_2/UpCunet2x/UpCunet2x.unet1/UpCunet2x.unet1.conv_bottom/conv2d_transpose/ReadVariableOp", "shape": [4, 4, 3, 64], "dtype": "float32"}, {"name": "StatefulPartitionedCall/model_2/UpCunet2x/UpCunet2x.unet1/strided_slice/stack", "shape": [4], "dtype": "int32"}, {"name": "StatefulPartitionedCall/model_2/UpCunet2x/UpCunet2x.unet1/strided_slice/stack_1", "shape": [4], "dtype": "int32"}, {"name": "StatefulPartitionedCall/model_2/UpCunet2x/UpCunet2x.unet1/strided_slice/stack_2", "shape": [4], "dtype": "int32"}, {"name": "StatefulPartitionedCall/model_2/UpCunet2x/UpCunet2x.unet1/UpCunet2x.unet1.conv2_up/strided_slice/stack", "shape": [1], "dtype": "int32"}, {"name": "StatefulPartitionedCall/model_2/UpCunet2x/UpCunet2x.unet1/UpCunet2x.unet1.conv2_up/strided_slice/stack_1", "shape": [1], "dtype": "int32"}, {"name": "StatefulPartitionedCall/model_2/UpCunet2x/UpCunet2x.unet1/UpCunet2x.unet1.conv2_up/strided_slice/stack_2", "shape": [1], "dtype": "int32"}, {"name": "StatefulPartitionedCall/model_2/UpCunet2x/UpCunet2x.unet1/UpCunet2x.unet1.conv2_up/strided_slice_1/stack", "shape": [1], "dtype": "int32"}, {"name": "StatefulPartitionedCall/model_2/UpCunet2x/UpCunet2x.unet1/UpCunet2x.unet1.conv2_up/strided_slice_1/stack_1", "shape": [1], "dtype": "int32"}, {"name": "StatefulPartitionedCall/model_2/UpCunet2x/UpCunet2x.unet1/UpCunet2x.unet1.conv2_up/strided_slice_1/stack_2", "shape": [1], "dtype": "int32"}, {"name": "StatefulPartitionedCall/model_2/UpCunet2x/UpCunet2x.unet1/UpCunet2x.unet1.conv2_up/mul/y", "shape": [], "dtype": "int32"}, {"name": "StatefulPartitionedCall/model_2/UpCunet2x/UpCunet2x.unet1/UpCunet2x.unet1.conv2_up/strided_slice_2/stack", "shape": [1], "dtype": "int32"}, {"name": "StatefulPartitionedCall/model_2/UpCunet2x/UpCunet2x.unet1/UpCunet2x.unet1.conv2_up/strided_slice_2/stack_1", "shape": [1], "dtype": "int32"}, {"name": "StatefulPartitionedCall/model_2/UpCunet2x/UpCunet2x.unet1/UpCunet2x.unet1.conv2_up/strided_slice_2/stack_2", "shape": [1], "dtype": "int32"}, {"name": "StatefulPartitionedCall/model_2/UpCunet2x/UpCunet2x.unet1/UpCunet2x.unet1.conv2_up/mul_1/y", "shape": [], "dtype": "int32"}, {"name": "StatefulPartitionedCall/model_2/UpCunet2x/UpCunet2x.unet1/UpCunet2x.unet1.conv2_up/stack/3", "shape": [], "dtype": "int32"}, {"name": "StatefulPartitionedCall/model_2/UpCunet2x/UpCunet2x.unet1/UpCunet2x.unet1.conv2_up/conv2d_transpose/ReadVariableOp", "shape": [2, 2, 64, 64], "dtype": "float32"}, {"name": "StatefulPartitionedCall/model_2/UpCunet2x/MirrorPad/paddings/0_1", "shape": [2], "dtype": "int32"}, {"name": "StatefulPartitionedCall/model_2/UpCunet2x/MirrorPad/paddings/1/0", "shape": [], "dtype": "int32"}, {"name": "StatefulPartitionedCall/model_2/UpCunet2x/add_3/x", "shape": [], "dtype": "int32"}, {"name": "StatefulPartitionedCall/model_2/UpCunet2x/sub/y", "shape": [], "dtype": "int32"}, {"name": "StatefulPartitionedCall/model_2/UpCunet2x/floordiv/y", "shape": [], "dtype": "int32"}, {"name": "StatefulPartitionedCall/model_2/UpCunet2x/add_1/y", "shape": [], "dtype": "int32"}, {"name": "StatefulPartitionedCall/model_2/UpCunet2x/mul/y", "shape": [], "dtype": "int32"}, {"name": "StatefulPartitionedCall/model_2/UpCunet2x/strided_slice_1/stack", "shape": [1], "dtype": "int32"}, {"name": "StatefulPartitionedCall/model_2/UpCunet2x/strided_slice_1/stack_1", "shape": [1], "dtype": "int32"}, {"name": "StatefulPartitionedCall/model_2/UpCunet2x/strided_slice_1/stack_2", "shape": [1], "dtype": "int32"}, {"name": "StatefulPartitionedCall/model_2/UpCunet2x/MirrorPad/paddings/2/0", "shape": [], "dtype": "int32"}, {"name": "StatefulPartitionedCall/model_2/UpCunet2x/add_4/x", "shape": [], "dtype": "int32"}, {"name": "StatefulPartitionedCall/model_2/UpCunet2x/sub_1/y", "shape": [], "dtype": "int32"}, {"name": "StatefulPartitionedCall/model_2/UpCunet2x/floordiv_1/y", "shape": [], "dtype": "int32"}, {"name": "StatefulPartitionedCall/model_2/UpCunet2x/add_2/y", "shape": [], "dtype": "int32"}, {"name": "StatefulPartitionedCall/model_2/UpCunet2x/mul_1/y", "shape": [], "dtype": "int32"}, {"name": "ConstantFolding/StatefulPartitionedCall/model_2/UpCunet2x/truediv_recip", "shape": [], "dtype": "float32"}, {"name": "StatefulPartitionedCall/model_2/UpCunet2x/add/y", "shape": [], "dtype": "float32"}, {"name": "StatefulPartitionedCall/model_2/UpCunet2x/strided_slice_2/stack", "shape": [1], "dtype": "int32"}, {"name": "StatefulPartitionedCall/model_2/UpCunet2x/strided_slice_2/stack_1", "shape": [1], "dtype": "int32"}, {"name": "StatefulPartitionedCall/model_2/UpCunet2x/strided_slice_2/stack_2", "shape": [1], "dtype": "int32"}, {"name": "StatefulPartitionedCall/model_2/UpCunet2x/MirrorPad/paddings/3_1", "shape": [2], "dtype": "int32"}, {"name": "StatefulPartitionedCall/model_2/UpCunet2x/UpCunet2x.unet1/UpCunet2x.unet1.conv1/sequential_12/UpCunet2x.unet1.conv1.conv.0/Conv2D/ReadVariableOp", "shape": [3, 3, 3, 32], "dtype": "float32"}, {"name": "StatefulPartitionedCall/model_2/UpCunet2x/UpCunet2x.unet1/UpCunet2x.unet1.conv1/sequential_12/UpCunet2x.unet1.conv1.conv.0/BiasAdd/ReadVariableOp", "shape": [32], "dtype": "float32"}, {"name": "StatefulPartitionedCall/model_2/UpCunet2x/UpCunet2x.unet1/UpCunet2x.unet1.conv1/sequential_12/UpCunet2x.unet1.conv1.conv.2/Conv2D/ReadVariableOp", "shape": [3, 3, 32, 64], "dtype": "float32"}, {"name": "StatefulPartitionedCall/model_2/UpCunet2x/UpCunet2x.unet1/UpCunet2x.unet1.conv1/sequential_12/UpCunet2x.unet1.conv1.conv.2/BiasAdd/ReadVariableOp", "shape": [64], "dtype": "float32"}, {"name": "StatefulPartitionedCall/model_2/UpCunet2x/UpCunet2x.unet1/UpCunet2x.unet1.conv1_down/Conv2D/ReadVariableOp", "shape": [2, 2, 64, 64], "dtype": "float32"}, {"name": "StatefulPartitionedCall/model_2/UpCunet2x/UpCunet2x.unet1/UpCunet2x.unet1.conv1_down/BiasAdd/ReadVariableOp", "shape": [64], "dtype": "float32"}, {"name": "StatefulPartitionedCall/model_2/UpCunet2x/UpCunet2x.unet1/unet.conv2/sequential_13/unet.conv2.conv.0/Conv2D/ReadVariableOp", "shape": [3, 3, 64, 128], "dtype": "float32"}, {"name": "StatefulPartitionedCall/model_2/UpCunet2x/UpCunet2x.unet1/unet.conv2/sequential_13/unet.conv2.conv.0/BiasAdd/ReadVariableOp", "shape": [128], "dtype": "float32"}, {"name": "StatefulPartitionedCall/model_2/UpCunet2x/UpCunet2x.unet1/unet.conv2/sequential_13/unet.conv2.conv.2/Conv2D/ReadVariableOp", "shape": [3, 3, 128, 64], "dtype": "float32"}, {"name": "StatefulPartitionedCall/model_2/UpCunet2x/UpCunet2x.unet1/unet.conv2/sequential_13/unet.conv2.conv.2/BiasAdd/ReadVariableOp", "shape": [64], "dtype": "float32"}, {"name": "StatefulPartitionedCall/model_2/UpCunet2x/UpCunet2x.unet1/unet.conv2/unet.conv2.seblock/Mean/reduction_indices", "shape": [2], "dtype": "int32"}, {"name": "StatefulPartitionedCall/model_2/UpCunet2x/UpCunet2x.unet1/unet.conv2/unet.conv2.seblock/unet.conv2.seblock.conv1/Conv2D/ReadVariableOp", "shape": [1, 1, 64, 8], "dtype": "float32"}, {"name": "StatefulPartitionedCall/model_2/UpCunet2x/UpCunet2x.unet1/unet.conv2/unet.conv2.seblock/unet.conv2.seblock.conv1/BiasAdd/ReadVariableOp", "shape": [8], "dtype": "float32"}, {"name": "StatefulPartitionedCall/model_2/UpCunet2x/UpCunet2x.unet1/unet.conv2/unet.conv2.seblock/unet.conv2.seblock.conv2/Conv2D/ReadVariableOp", "shape": [1, 1, 8, 64], "dtype": "float32"}, {"name": "StatefulPartitionedCall/model_2/UpCunet2x/UpCunet2x.unet1/unet.conv2/unet.conv2.seblock/unet.conv2.seblock.conv2/BiasAdd/ReadVariableOp", "shape": [64], "dtype": "float32"}, {"name": "StatefulPartitionedCall/model_2/UpCunet2x/UpCunet2x.unet1/UpCunet2x.unet1.conv2_up/BiasAdd/ReadVariableOp", "shape": [64], "dtype": "float32"}, {"name": "StatefulPartitionedCall/model_2/UpCunet2x/UpCunet2x.unet1/UpCunet2x.unet1.conv3/Conv2D/ReadVariableOp", "shape": [3, 3, 64, 64], "dtype": "float32"}, {"name": "StatefulPartitionedCall/model_2/UpCunet2x/UpCunet2x.unet1/UpCunet2x.unet1.conv3/BiasAdd/ReadVariableOp", "shape": [64], "dtype": "float32"}, {"name": "StatefulPartitionedCall/model_2/UpCunet2x/UpCunet2x.unet1/UpCunet2x.unet1.conv_bottom/BiasAdd/ReadVariableOp", "shape": [3], "dtype": "float32"}, {"name": "StatefulPartitionedCall/model_2/UpCunet2x/UpCunet2x.unet1/strided_slice_1/stack", "shape": [4], "dtype": "int32"}, {"name": "StatefulPartitionedCall/model_2/UpCunet2x/UpCunet2x.unet1/strided_slice_1/stack_1", "shape": [4], "dtype": "int32"}, {"name": "StatefulPartitionedCall/model_2/UpCunet2x/UpCunet2x.unet1/strided_slice_1/stack_2", "shape": [4], "dtype": "int32"}, {"name": "StatefulPartitionedCall/model_2/UpCunet2x/strided_slice_4/stack", "shape": [4], "dtype": "int32"}, {"name": "StatefulPartitionedCall/model_2/UpCunet2x/strided_slice_4/stack_1", "shape": [4], "dtype": "int32"}, {"name": "StatefulPartitionedCall/model_2/UpCunet2x/strided_slice_4/stack_2", "shape": [4], "dtype": "int32"}, {"name": "StatefulPartitionedCall/model_2/UpCunet2x/sub_4/y", "shape": [], "dtype": "float32"}, {"name": "StatefulPartitionedCall/model_2/UpCunet2x/mul_2/y", "shape": [], "dtype": "float32"}, {"name": "StatefulPartitionedCall/model_2/UpCunet2x/clip_by_value/Minimum/y", "shape": [], "dtype": "float32"}, {"name": "StatefulPartitionedCall/model_2/UpCunet2x/clip_by_value/y", "shape": [], "dtype": "float32"}, {"name": "__inference_model_2_UpCunet2x_cond_true_9778_219_tfg_region_specialized_StatefulPartitionedCall_model_2_UpCunet2x_cond_0_tfg_region_specialized_StatefulPartitionedCall_model_2_UpCunet2x_cond_0/model_2/UpCunet2x/cond/strided_slice/stack_tfg_inlined_StatefulPartitionedCall/model_2/UpCunet2x/cond_0_tfg_inlined_StatefulPartitionedCall/model_2/UpCunet2x/cond_0", "shape": [4], "dtype": "int32"}, {"name": "__inference_model_2_UpCunet2x_cond_true_9778_219_tfg_region_specialized_StatefulPartitionedCall_model_2_UpCunet2x_cond_0_tfg_region_specialized_StatefulPartitionedCall_model_2_UpCunet2x_cond_0/model_2/UpCunet2x/cond/strided_slice/stack_1/0_tfg_inlined_StatefulPartitionedCall/model_2/UpCunet2x/cond_0_tfg_inlined_StatefulPartitionedCall/model_2/UpCunet2x/cond_0", "shape": [], "dtype": "int32"}, {"name": "__inference_model_2_UpCunet2x_cond_true_9778_219_tfg_region_specialized_StatefulPartitionedCall_model_2_UpCunet2x_cond_0_tfg_region_specialized_StatefulPartitionedCall_model_2_UpCunet2x_cond_0/model_2/UpCunet2x/cond/mul/y_tfg_inlined_StatefulPartitionedCall/model_2/UpCunet2x/cond_0_tfg_inlined_StatefulPartitionedCall/model_2/UpCunet2x/cond_0", "shape": [], "dtype": "int32"}, {"name": "__inference_model_2_UpCunet2x_cond_true_9778_219_tfg_region_specialized_StatefulPartitionedCall_model_2_UpCunet2x_cond_0_tfg_region_specialized_StatefulPartitionedCall_model_2_UpCunet2x_cond_0/model_2/UpCunet2x/cond/mul_1/y_tfg_inlined_StatefulPartitionedCall/model_2/UpCunet2x/cond_0_tfg_inlined_StatefulPartitionedCall/model_2/UpCunet2x/cond_0", "shape": [], "dtype": "int32"}, {"name": "__inference_model_2_UpCunet2x_cond_true_9778_219_tfg_region_specialized_StatefulPartitionedCall_model_2_UpCunet2x_cond_0_tfg_region_specialized_StatefulPartitionedCall_model_2_UpCunet2x_cond_0/model_2/UpCunet2x/cond/strided_slice/stack_1/3_tfg_inlined_StatefulPartitionedCall/model_2/UpCunet2x/cond_0_tfg_inlined_StatefulPartitionedCall/model_2/UpCunet2x/cond_0", "shape": [], "dtype": "int32"}, {"name": "__inference_model_2_UpCunet2x_cond_true_9778_219_tfg_region_specialized_StatefulPartitionedCall_model_2_UpCunet2x_cond_0_tfg_region_specialized_StatefulPartitionedCall_model_2_UpCunet2x_cond_0/model_2/UpCunet2x/cond/strided_slice/stack_2_tfg_inlined_StatefulPartitionedCall/model_2/UpCunet2x/cond_0_tfg_inlined_StatefulPartitionedCall/model_2/UpCunet2x/cond_0", "shape": [4], "dtype": "int32"}]}]}